checkpoint_actor.pth (torch, 165444 bytes, 10 tensors)

fc1.weight f4 [256, 24]
00000000: 5011 6a3e 3e6e f03d dcec 74bc f49d 0ebc
00000010: e693 743d eb40 9bbe ac94 b7bc 7cba b23b
00000020: d366 623e caa4 833d db8d 7d3c 2c8c 81bc
00000030: 4730 513d 1bc2 08be 97fa 0fbd fc12 263c
00000040: 5852 d93d 4e57 ec3d fa6e 8ebd 2531 a93b
00000050: c976 f9bc 1331 73bd 4735 153d f441 80bc
00000060: fe48 adbc c932 78be dab2 163d 5069 353b
00000070: 92e9 6fbb 03a0 0cbf ba96 55bd 03d6 ceba
00000080: 7afc 443d f1bb 83be ad78 ddbc 5eba 63bd
00000090: 15db 223d 87b5 68be 6607 0c3d 5fd5 aabd
000000a0: 9a3e b5bb dd71 47be 699f 553d cfbc 1abb
000000b0: 95a6 e13d d2fd 0d3e b52c 46bd facf 3f3d
000000c0: 3ed2 68be e6dd 28be e6b9 b1bb 48af b33d
000000d0: 8526 943d 527d 2abd b790 0f3c eb62 c13d
000000e0: 9d73 17be 15a1 48be 62c6 85bb c5b2 f6bd
000000f0: 9182 153d 01ef 8d3e 13e8 5fbd 4d82 d8bd
00000100: 5366 4ebd 13b8 31be bcc5 74bc 54c6 3bbd
00000110: 6a19 5cbd 3a1a fd3e 9590 e1ba 30f1 12be
00000120: 9fed d93c 9715 ad3d 4944 bfbd cde4 fc3c
00000130: 8895 2bbe fc8f 37bd 05a7 a9bd c51d b73d
00000140: 52cd ae3d 99cf f83c f79b 9c3a d785 0a3c
00000150: e155 3c3d 3a4a 1abe 244c aabc 2efc bbbc
00000160: 5fa0 083e 16f7 cd3d 7eac 11bd efa7 c2bc
00000170: 222f 403e bc3e 9abe 200c 8e37 9053 10bd
00000180: 7607 283e 73fe 743e db85 05bd ef58 ac3d
00000190: cab3 203d 2922 edbd ca84 88bd e824 4f3d
000001a0: 237e c23d bb63 863e b48c 0ebd 6ec8 b43c
000001b0: 2ce6 00bb a162 b8bc 840b 913d 74ca ca3c
000001c0: 8a5c 813e ece0 a13e 6905 543d 08c0 f03d
000001d0: 8c71 66bd e8ee cdbd b4fe 003d ef90 f33d
000001e0: 4327 8abd 42bd 733d 2046 99bd f649 7c3b
000001f0: a388 7ebd 8322 373e 0ca9 bc3c f7f5 143d
00000200: 14df 9bbd be0e 613d fafd 013c ee2e fa3c
00000210: 6d22 64bd 2607 b0bc 4002 71bd d258 5d3d
00000220: 3eab 23bd ee4d 523d 8410 0e3d b522 ccbc
00000230: 4841 043e c6ad 01bf 7c6e 86bd db3f d7bd
00000240: b2bc 05be 261a 8bbc 4028 d53b 81ce b63b
00000250: 1076 9bbd 8b21 f5be f434 71bb 5923 ae3c
00000260: b465 38bc 0e74 9f3d c582 ccbc 5359 da3b
00000270: 5209 713c ca92 2fbb 18fb 6c3c 551f 913c
00000280: e6a5 e43c ae53 5d3d 0b5b 6f3b 3480 f9bb
00000290: d53a 153d 3191 233f 1aed 33bc 4b05 e7bb
000002a0: 9398 b23c 8dc0 05bd 00f3 1c3d f93b 99bc
000002b0: d65a 37be f783 04be 8c8c 5cbd 24be 1d3d
000002c0: 7a7d ca3d 9dcf fe3d 8fcd 1dbd 48bc 853c
000002d0: ae6f 043d 088f d2bd 056c 2d3c 30bf 743d
000002e0: 228e ff3d a99c e43d 3e6a 9ebc dc25 a1bd
000002f0: d6e1 343e f598 19be bac9 213a 3d44 37bc
00000300: 8c42 af3d b36e 9ebd b616 3dbc 1a21 8a3d
00000310: 07cd 263e f893 093d 99cd da3b 29f4 823d
00000320: 3ffa 7a3e e520 91bc 20e9 73bc dc2a 263e
00000330: ab53 8b3c a333 8ebd 7912 8fbd 8857 193e
00000340: 1a8d 423e 8b75 3c3d 31d7 4fbd 5f74 403e
00000350: eff8 ac3b 6c11 433c 9eb5 2fbc 3d15 033e
00000360: f624 b63c 79a3 8dbb 7736 203c 7377 6c3e
00000370: 5117 643e 4316 67be 804c 2dbc c2bd fa3d
00000380: 3790 7d3d 1db7 99bd 275f babd ee23 e73d
00000390: 8136 173e 2af9 07be 0e2f 7abc 7052 943c
000003a0: e67d 073e 90f5 b6bd 545c 3d3c 725c 17be
000003b0: a95c 22bd e42b 7b3d 5073 02bd 326c d6bd
000003c0: 4dfe cebd 1559 95be b378 e7bc 7912 643d
000003d0: 940b c3bc 1185 a73b 3015 9b3c e07a 833d
000003e0: 8766 c3bd 2263 95be 699e cbbd 9eaa c23b
000003f0: 4279 c13d 561d 3d3e 2f7f aabd 4d0a a7bd
0.22858167 0.11739777 -0.01494905 -0.008704651 0.05971136 -0.30322966 -0.02240976 0.0054543596
0.22109537 0.064279154 0.0154757155 -0.01581391 0.05107143 -0.13355295 -0.03515109 0.010136362
0.10611409 0.115400895 -0.06954761 0.005163329 -0.030452149 -0.059372973 0.036427762 -0.015656449
-0.02115297 -0.24238123 0.03679166 0.002768118 -0.0036607725 -0.5493166 -0.052145697 -0.0015780333
0.048092343 -0.25729325 -0.027035082 -0.055597655 0.039759714 -0.22725497 0.034186743 -0.083414786
-0.0055311443 -0.19477029 0.05215398 -0.0023611074 0.11018101 0.13866356 -0.04838248 0.0468292
-0.22736451 -0.16490898 -0.005423772 0.087736666 0.072339095 -0.04162342 0.00876253 0.09442695
-0.14790197 -0.19592698 -0.004082487 -0.12045816 0.03650147 0.27721408 -0.054664683 -0.10571728
-0.050390553 -0.17355375 -0.014939722 -0.045843437 -0.053735174 0.49434072 -0.0017209226 -0.14349818
0.026602564 0.084513836 -0.09339196 0.03087082 -0.1675626 -0.04481505 -0.082838096 0.08941225
0.085352555 0.030372428 0.0011948337 0.0084547615 0.045980338 -0.15067378 -0.02078826 -0.022947397
0.13342427 0.100568935 -0.035564892 -0.023761718 0.1876798 -0.30125988 1.6933365e-05 -0.03523594
0.16409096 0.2392519 -0.032598358 0.084154 0.03923396 -0.11578781 -0.066659525 0.050572306
0.09496715 0.26247963 -0.034802154 0.022068229 -0.0019668443 -0.022507967 0.070822746 0.02475474
0.25265914 0.31616914 0.051762972 0.11755377 -0.05626063 -0.100553334 0.031492904 0.11892878
-0.0674577 0.059506662 -0.074840784 0.0038496233 -0.062142026 0.17884259 0.023029827 0.036367383
-0.07610908 0.0549457 0.007934088 0.030539956 -0.055696893 -0.021487784 -0.058840036 0.054039784
-0.03995823 0.05134385 0.03468372 -0.024918893 0.12915528 -0.5065578 -0.06564042 -0.10510226
-0.13060263 -0.016980242 0.0065050423 0.0055788164 -0.07590878 -0.47877154 -0.0036805244 0.02125709
-0.011254717 0.077858075 -0.0249647 0.0066634803 0.014711695 -0.0026790374 0.014464162 0.017715136
0.027911138 0.05403488 0.0036522772 -0.00761416 0.03643306 0.6389342 -0.010981822 -0.0070501915
0.021801269 -0.032654334 0.03831768 -0.018705355 -0.17905745 -0.12940966 -0.053844973 0.03851141
0.09887214 0.12441943 -0.038526114 0.016325131 0.03233307 -0.10281187 0.010584836 0.059752643
0.124782816 0.11162693 -0.01933777 -0.07868549 0.17664275 -0.14999755 0.0006171722 -0.011185703
0.08557615 -0.07735958 -0.011541059 0.06744595 0.16289149 0.03358838 0.006677341 0.06394226
0.24509524 -0.01771588 -0.014887124 0.16227287 0.01700767 -0.06943443 -0.06985945 0.14974797
0.18999138 0.046010535 -0.050742332 0.18794392 0.0052786986 0.011906009 -0.010724453 0.1280107
0.022234421 -0.004322466 0.00977861 0.23092441 0.2227452 -0.22567086 -0.010577321 0.12243225
0.061905112 -0.07505629 -0.0910018 0.1128615 0.14766885 -0.13278642 -0.015270008 0.018105716
0.1323162 -0.08933556 0.011557657 -0.14781359 -0.03963915 0.061321154 -0.03184825 -0.10469855
-0.10107098 -0.29169527 -0.028255796 0.05568168 -0.023809232 0.0051122983 0.018931001 0.06419921
-0.0954104 -0.29177195 -0.09942324 0.0059407493 0.09446956 0.18468222 -0.083250396 -0.081562616

fc1.bias f4 [256]
00000000: 07b9 86be 001b 833c 7ed3 0b3e 0795 95be
00000010: a7fe adbd 6b09 863d c050 f1be fbd5 9abe
00000020: b3a4 afbc 24b2 58be 92be c13d c7b4 9fbe
00000030: 51dd 3b3d febe 9abe e830 4bbe fd75 1fbe
00000040: 1185 aa3c 1960 913d 9e63 54be d076 3bbd
00000050: f665 3bbe bf43 ce3d 2825 24be 605b d3bd
00000060: 0774 31be 9aeb e4bd 2253 bdbd 8de0 8abe
00000070: e981 7bbe 60d3 313e 050f 1bbe 240b 57bd
00000080: e038 f83d 358a 37be a4cd abbe c03b b039
00000090: 06bd c4be cf8d 1c3d 7f1f e0bd 4269 6dbe
000000a0: 3239 41be 6e29 b6bd 0f77 17be 8a6a b03c
000000b0: 82d5 9f3c 54fa dbbd fd25 f7bd 2fb6 823a
000000c0: 14b7 a13d e985 dcbe 8c2a 03be 4fb1 833d
000000d0: 4cf6 3e3d b370 463e a281 1fbd 818a f33c
000000e0: 05fa 13be a064 dfbc 2a99 54be e6c0 b7be
000000f0: 0352 a0be 10d5 46be 1691 a4be 49bb 64be
00000100: 3137 9ebd a5e9 63be dcf3 393d b961 083e
00000110: fc8e 623c 5a91 373c 1909 cbbe 6609 78be
00000120: 0b93 bcbe 5cb4 f23d d519 d2bd ad22 623d
00000130: d4fd 253e ce3a b93c 11fc 7fbd b20a 96be
00000140: ace8 5dbd 63a8 00be c879 b23c 6647 c6bc
00000150: 8bb4 9a3c 66c6 203e 8a81 5f3b 0e72 c1bd
00000160: 13dc b0bc 67bc 22bd 1185 17bd f5e1 25be
00000170: 5510 6abe 7a9f 2bbe 08cb 25be 4a1e 44be
00000180: 232d 913d 09d3 25be b2da 553b 5dfe f5bd
00000190: 9125 9fbc 9e33 82be 804d 99be 0b5b 40be
000001a0: 7479 4abe 2895 46bd b278 6fba 28a2 a5be
000001b0: da4d 1b3d b44b 33be 3649 6dbe 6a68 2cbd
000001c0: f28d aebd 48d8 4ebd 8860 b4be 1f5d 83bd
000001d0: 6ec4 1d3c dda3 22be 3776 96bd 823b 51be
000001e0: 4989 043c 8321 023e e9ca 66be a17d c0be
000001f0: 5c55 f23a 0208 453c 8675 0bbe 76c5 44be
00000200: a33c e63d ea45 f5bd 96db 5ebe bb79 d5bb
00000210: d82a 05be 2bbe 70be b111 a3be 30e5 c8be
00000220: 4ef5 19be 2805 d8bd c98f 2d3e f7f5 5cbd
00000230: 28ce bbbd 3dd8 fabd 5ede 063e 1b59 86bc
00000240: a386 5b3d e90b 97be d6ff 443e 03e4 103e
00000250: 0103 f33d c7e7 8bbe 0111 00be 11f7 003e
00000260: 2b9e e93d a4ab 233d d824 503d 19f8 93be
00000270: ca1a 92be da2d 1ebe 0778 e73d fb08 4abd
00000280: 3291 4dbe a86c 84be 73cd 93bd 7fe6 18be
00000290: baca 6dbd 1e67 5fbe 1022 533e 4aab 94bd
000002a0: 7be4 52be e8b1 10bd 6f1f 683d cece 54be
000002b0: 0f43 993b eb62 6b3c 5328 59be 57c6 28be
000002c0: ecb0 2d3a f8af 66be 3466 203e 3436 443e
000002d0: d3fa 0bbe 220f 0d3e 4c83 a1be ddb5 bdbe
000002e0: 4bd4 0abe e034 41be 9073 ec3d 5759 013e
000002f0: 624a 2fbd b7e6 32be 94dd 81be ee44 7dbe
00000300: 8bd4 fcbd db71 9fbd 7990 fb3b 555c 543c
00000310: 61d2 9a3e 9f55 50be e403 1ebe 012e 27be
00000320: cb78 df3d e735 0bbc 1b48 833d 30a8 90be
00000330: 7610 f8bd fa41 0cbd 98b5 623d 30c5 d8bd
00000340: 3701 563d 3781 22be 4968 c73d 1188 903c
00000350: 78d9 1bbe d2e4 d2bd 61a6 6c3b 55c7 a3be
00000360: 1f9c 53bd 7ffc 243d cec8 303e 30ec 69be
00000370: 39db f03d bee0 9e3e 4c69 b9bc 8fb2 81be
00000380: f17a 9ebd 56e0 2fbe 0c5f 31be ec53 7bbe
00000390: 2de0 333e 7404 a6be 78c9 70bd 8d14 02be
000003a0: cfc3 3ebe de70 9bbd 233b 80bc 3d32 81be
000003b0: c474 0b3e b158 04be 04ce 883c 9e06 5bbe
000003c0: 0c1a 26be bcb7 43bd 4c54 60be 8f26 4ebe
000003d0: d2e0 e53c 1fd9 69be 9583 20bd 4df4 d43d
000003e0: f20f f4bd 6867 2bbd 2c47 4fbe 6757 2abe
000003f0: 04e0 a33e da8c 6ebe 41ce edbd c614 92be
-0.2631304 0.016004086 0.13654897 -0.2921526 -0.08495837 0.06544765 -0.4713192 -0.3024138
-0.02144084 -0.21161705 0.094601765 -0.3119261 0.04586536 -0.3022384 -0.19842875 -0.15572353
0.020815404 0.07098407 -0.20741126 -0.045767605 -0.18300614 0.10071515 -0.16029799 -0.10320163
-0.17329417 -0.1117775 -0.09244372 -0.27124444 -0.24561276 0.1736579 -0.15142448 -0.05250086
0.12120223 -0.17923816 -0.3355533 0.00033613853 -0.38425463 0.038221177 -0.109435074 -0.23184684
-0.18869475 -0.08894621 -0.14791511 0.021535177 0.019510988 -0.10741106 -0.120677926 0.0009972508
0.078962475 -0.43070915 -0.12809199 0.06430303 0.046621606 0.19378929 -0.038941987 0.02972913
-0.14450844 -0.027269661 -0.20761552 -0.35889357 -0.3131257 -0.19417214 -0.32141942 -0.22337069
-0.07725371 -0.22257097 0.045398578 0.13318528 0.013828035 0.011204088 -0.39655378 -0.24222335
-0.36830935 0.11850807 -0.10258833 0.05520885 0.16210109 0.022611048 -0.06249625 -0.29305035
-0.05417697 -0.12564234 0.021786585 -0.024203967 0.018884918 0.15700683 0.003410431 -0.09445582
-0.021589315 -0.039730456 -0.036992136 -0.16199477 -0.22857793 -0.16760054 -0.16190732 -0.1915218
0.07088687 -0.16193785 0.0032631573 -0.120114066 -0.019427093 -0.25430006 -0.2994194 -0.1878473
-0.19772893 -0.04848209 -0.00091351115 -0.32350278 0.037916042 -0.17509347 -0.23172459 -0.042091765
-0.08523168 -0.05049923 -0.35229897 -0.06414246 0.009629352 -0.15882821 -0.073467664 -0.20432857
0.008089372 0.12708096 -0.22538342 -0.37595847 0.0018488574 0.012025835 -0.1361905 -0.1921595
0.11242034 -0.11976226 -0.21763453 -0.0065147555 -0.13004625 -0.23510043 -0.31849435 -0.39237356
-0.15034983 -0.105478585 0.16949381 -0.053945508 -0.091701806 -0.122482754 0.13170764 -0.01639991
0.053595196 -0.29501274 0.19238219 0.1414948 0.11865807 -0.2732527 -0.12506486 0.12594248
0.11407121 0.03995861 0.050816387 -0.2890022 -0.28536063 -0.15447178 0.1130219 -0.04932497
-0.20074919 -0.25864148 -0.07216921 -0.14931677 -0.058054663 -0.2181668 0.20618463 -0.07259233
-0.20594971 -0.035325915 0.056670602 -0.20782015 0.0046771835 0.014366846 -0.21206789 -0.1648191
0.00066257897 -0.22528064 0.15663987 0.19161302 -0.136699 0.13775304 -0.31545484 -0.37052813
-0.13557546 -0.18867826 0.11545479 0.12631737 -0.042795546 -0.17470823 -0.25364363 -0.24733326
-0.12345227 -0.07785388 0.0076771346 0.012961467 0.3023863 -0.20345162 -0.15431172 -0.16326143
0.10911711 -0.008496738 0.064102374 -0.28253317 -0.12112515 -0.034242608 0.055348963 -0.105844855
0.052247252 -0.15869604 0.09736688 0.017643007 -0.15219676 -0.1029755 0.0036109912 -0.31988016
-0.05166256 0.04027986 0.17264101 -0.22844005 0.117605634 0.3103084 -0.022633217 -0.25331542
-0.07738293 -0.17175421 -0.17321414 -0.24543732 0.17565985 -0.32425272 -0.058785886 -0.12703152
-0.18629383 -0.07589887 -0.015653199 -0.2523364 0.13618761 -0.12924458 0.016699798 -0.21389243
-0.16220874 -0.047782645 -0.21907157 -0.20131896 0.028061304 -0.22836731 -0.039187986 0.10398159
-0.11917104 -0.041846663 -0.20241994 -0.16634904 0.32006848 -0.23295918 -0.116116054 -0.28531474

bn1.weight f4 [256]
00000000: 2255 7c3f ae14 a13f df26 683f 66bb 983f
00000010: 3946 863f a888 9b3f 10c7 bf3f 9b96 8b3f
00000020: cc4d 743f bf4c 9e3f 3d7b 743f 2340 973f
00000030: 6854 9c3f c248 c23f 1141 373f c0b3 883f
00000040: 72e5 873f f9a9 883f ca1d 643f d0f1 893f
00000050: 689b 943f d1a6 bf3f 6cd0 783f e5f4 3d3f
00000060: d2d9 9c3f 8b4e 8e3f ec9e 7a3f 432c a33f
00000070: d7c4 823f b6be 963f ac92 6e3f c32f 8b3f
00000080: 4c7c a43f ef55 913f 7bd1 853f d46f 8d3f
00000090: 2686 913f 7040 8b3f 6ebd 893f 93b6 633f
000000a0: cae7 8b3f 449d 883f 6ec5 943f 6765 603f
000000b0: c0dd 913f 6026 8f3f 9c76 8e3f cbbf 913f
000000c0: 96cd 843f 5506 833f 2790 903f b618 763f
000000d0: 72f2 8b3f 8068 8f3f c408 9a3f 0941 853f
000000e0: 3e59 853f 967e 913f f870 8c3f 7772 9d3f
000000f0: 9ec4 a43f 33da 823f 7c7b 9e3f 2ece 8c3f
00000100: 6ecd 763f 2b79 813f 21cb 933f 9e55 613f
00000110: c751 823f 9726 803f 5d1c 873f 6b32 883f
00000120: 5661 7b3f f119 953f f175 893f af9d 7e3f
00000130: d49b 8f3f 29cb 7e3f 4f00 913f 8a5b 8b3f
00000140: 8720 9a3f 047a 753f b012 a43f ae04 973f
00000150: ed2d 6b3f 8077 6f3f 78cd 883f 6ee3 9c3f
00000160: 9a8c 2a3f 0646 473f 7b66 783f d126 9f3f
00000170: c29d 903f b3b5 823f 9fbe 993f c716 633f
00000180: ac5b 8a3f cc9d a13f c210 7e3f d693 513f
00000190: c9ff 833f 0f1d 713f 52de c83f cdc9 803f
000001a0: 0f26 8e3f 7e35 803f affb 783f 0b65 933f
000001b0: 05bb 893f c0bb 933f 6f47 843f 3da1 943f
000001c0: d556 803f 77f5 8f3f 90d7 a13f 1342 883f
000001d0: 1b3b 783f fb9b 8e3f cefd 4e3f a09b 913f
000001e0: 9445 903f 2b13 923f 9168 823f 9bdb 8c3f
000001f0: c449 8a3f df22 993f 6622 7a3f 865b 853f
00000200: 0c02 9b3f b32c 8f3f d9b8 9a3f 9c22 823f
00000210: 6c35 a53f 57ed 803f 41d5 8c3f 3fd6 953f
00000220: 9545 703f 8acf 943f ad78 903f 89f8 a23f
00000230: cbc2 933f 6933 8f3f 1fd7 883f 63d1 903f
00000240: c0d9 8f3f 2c6b 8b3f 7925 873f afdc b03f
00000250: 65b8 c93f 6f91 ac3f 5d0a 8f3f bc58 8c3f
00000260: 0518 4c3f 12e2 7e3f 560f 813f 9673 793f
00000270: 063d 8e3f e3aa 983f 39bd 903f a7c5 7a3f
00000280: 6e92 8c3f 8297 903f 9835 943f 34d4 683f
00000290: c1dc 7d3f 315a 603f 7901 763f 962f 833f
000002a0: ef84 773f 6a29 583f bdc1 7e3f bff2 803f
000002b0: 9bb9 8f3f 3a86 9a3f 2cb8 823f 0ac6 663f
000002c0: f550 943f 3720 953f f3bb 843f cd4d 353f
000002d0: a79a 723f b3ee 803f ca01 8e3f 1572 8c3f
000002e0: a83f 903f f49e 6a3f 89f6 843f aed3 5b3f
000002f0: 07fc 913f 7964 8d3f 8745 863f bbdf 903f
00000300: 3982 813f 208e 833f e28e ab3f a5d6 4c3f
00000310: 30a4 983f a950 863f 5be5 983f 1f5c 633f
00000320: a08a 5f3f 2e3b 933f bd8b 7f3f 6181 733f
00000330: 9723 7f3f 7506 903f fa94 903f 8f33 8d3f
00000340: 2f3a 8c3f cb1a 8b3f fc01 453f 2c5f 7f3f
00000350: eb05 8d3f 6f4a 823f d637 8e3f a262 893f
00000360: 2e6c 8a3f 029d a43f fee6 a43f 52e7 813f
00000370: 5903 823f 4b0c 5d3f a79c 8f3f 6fb0 943f
00000380: a967 9c3f 24b9 833f 86ad 8c3f c2cf 803f
00000390: f014 793f 31f9 603f d185 6c3f edfa 4c3f
000003a0: 4b9b 933f d5aa 9c3f 9aa5 923f 2378 a13f
000003b0: 9f73 833f e574 7f3f 6f41 813f 2fa7 953f
000003c0: 35f1 5f3f 9ec4 583f 39a9 803f 30ae 733f
000003d0: 630c 8d3f e28a 7a3f 7915 753f b5f5 a53f
000003e0: a00b b83f 9a71 913f 8480 943f ea4a 843f
000003f0: 21f3 5b3f db55 933f a1c6 6b3f bbb1 8f3f
0.985674 1.2584436 0.9068431 1.193219 1.049018 1.2151079 1.4982624 1.0905336
0.9543121 1.2367171 0.95500547 1.1816448 1.2213259 1.5178454 0.7158366 1.0679855
1.0616896 1.0676872 0.89107955 1.077692 1.1609926 1.4972783 0.97193027 0.74201804
1.2253973 1.111772 0.97898746 1.2747883 1.0216321 1.177695 0.93192554 1.0873951
1.2850432 1.135435 1.0454553 1.1049752 1.1369064 1.087904 1.0760934 0.8895046
1.0930111 1.0672994 1.1622751 0.8765473 1.1395798 1.1183586 1.1129947 1.1386656
1.037524 1.0236307 1.1293992 0.96131456 1.0933363 1.1203766 1.2033925 1.0410472
1.041786 1.1366756 1.0971975 1.2300557 1.2872503 1.0222839 1.2381434 1.1000421
0.9640721 1.0115103 1.1546365 0.88021266 1.0181206 1.0011777 1.0555531 1.0640386
0.981954 1.1648542 1.0739118 0.99459356 1.121943 0.9952875 1.1328219 1.088731
1.2041177 0.95889306 1.2818203 1.1798303 0.9186695 0.9354172 1.0687704 1.2256906
0.6662079 0.7784122 0.9703137 1.2433721 1.1298144 1.02117 1.2011298 0.8870663
1.0809226 1.2626281 0.9924432 0.81866205 1.0312434 0.94184965 1.5692847 1.0061585
1.1105365 1.0016325 0.9725904 1.1515211 1.0760199 1.1541672 1.03343 1.1611706
1.0026499 1.1246785 1.264391 1.0645164 0.9696519 1.1141351 0.80856025 1.1375618
1.1271234 1.14121 1.0188161 1.1004518 1.0803761 1.1963767 0.9770874 1.0418556
1.211 1.1185516 1.2087661 1.0166812 1.2906928 1.007243 1.100258 1.1706008
0.93856174 1.1625836 1.1286827 1.2732097 1.1543821 1.1187564 1.069065 1.13139
1.1238327 1.0892081 1.0558311 1.3817347 1.5759398 1.3481883 1.1175038 1.096458
0.7972415 0.99563706 1.0082805 0.97441995 1.1112373 1.192715 1.1307746 0.97957844
1.0982187 1.1296237 1.1578856 0.90948796 0.9916497 0.8763762 0.96096 1.0248897
0.96687216 0.8443819 0.9951437 1.007408 1.1228517 1.2072213 1.0212455 0.90145934
1.1587206 1.1650456 1.0369858 0.7082184 0.9476723 1.0072845 1.1094296 1.0972315
1.1269426 0.91648793 1.0387737 0.8586987 1.1405038 1.1046287 1.0489968 1.1318277
1.0117866 1.0277748 1.3402979 0.8001502 1.1925106 1.0493366 1.1944994 0.8881244
0.873209 1.1502435 0.998226 0.9511929 0.9966368 1.125197 1.1295464 1.103136
1.0955256 1.0867552 0.7695615 0.99754596 1.1017431 1.0178965 1.111079 1.0733225
1.0814264 1.2860415 1.2882993 1.0148718 1.0157272 0.8634688 1.1219682 1.1616343
1.2219135 1.0290875 1.0990455 1.0063403 0.97297573 0.87880236 0.9239169 0.8007038
1.1531767 1.2239634 1.1456788 1.2614788 1.026966 0.9978774 1.0098094 1.1691645
0.8747743 0.84675014 1.0051643 0.95187664 1.1019405 0.9786817 0.9573589 1.2965609
1.4378548 1.1362793 1.160172 1.0335362 0.8591786 1.1510576 0.9209996 1.1226114

bn1.bias f4 [256]
00000000: 98bd 113e a0f8 353e e2e9 7c3c f248 883b
00000010: 3e81 74bd 19b3 0d3e 167c debd 652c ae3b
00000020: 0895 abbc f1e4 563d db92 883d ec40 e03d
00000030: 81cb ca3d 5ded b33d a31c 4d3d 475a 073d
00000040: dea7 6abd c642 33bc 8d51 ae3d 652f d8bc
00000050: b162 e73e 9160 24bd b9ca 2fbd 80b1 9d3c
00000060: dc72 97bd e58a ca3d 140f b2bd cbd3 cb3c
00000070: 0973 f73c 9e56 f83d e3ac 083e b011 9d3d
00000080: 3732 9d3c 9d14 1e3d f534 543e 433c 88bd
00000090: 7458 a53d 370e 5e3d 72c2 5b3d dc7e 30bc
000000a0: dc05 de3d 9396 513d 10fc 343e d615 aabb
000000b0: 5bc8 1abd a444 623d 4892 013d eb2e 893e
000000c0: a843 fa3d b42d f23d cfab 3d3e 129c 0b3d
000000d0: 8879 f03c 9817 623c 16db cd3d fd4c 43bd
000000e0: 262e 1e3e 03f6 b7bb 1b3c 393d 6921 d2bd
000000f0: dd43 3f3e bebd e93c 7677 babc 62fa cb3d
00000100: 97db 51bc cca1 493e 3849 9a3c ddab bc3a
00000110: 6d03 143e 179a 843e a4a3 043d 06eb 783d
00000120: 543c 8e3c 74bf 123c 192b 4cbd b3ca cb3d
00000130: 1a47 d43b 48bc 3b3c bce5 eabc bf14 0fbe
00000140: df3f 363d 7914 00be e64c 29bc ab49 0a3d
00000150: 89c1 16be 63a9 b53c 9589 38be f7a9 163e
00000160: 1307 1bbe 2b15 363d 828a a6bc e2e0 573d
00000170: 84f7 b23d ea85 c73d 7d1a 88bd 54fa c63d
00000180: 9e9a f03d e412 463d 99cd 713d d2ce 0fbd
00000190: b9d5 b53d 30df 413d 3102 d2bc 81bd 093e
000001a0: 6d7f 803e 0ea2 ab3c d48f 2d3d 67ef 883d
000001b0: 9bba 433d 03df 923d 4d49 a2bd eb9e be3d
000001c0: 0c8e 433d fe1a abbb 07b0 d4bb 5ee3 633e
000001d0: 042e 023d 19bd f53d 2d29 883e 105f a13d
000001e0: 1e2b e13d 2481 0cbd dd4f 373d 342f 2b3e
000001f0: 856d a83d 70ba c03a 3964 06bd cebb f0bd
00000200: bd14 3c3c 5d92 f43d da19 41bd e83a c7bd
00000210: abb5 703c d323 f63d 8fc1 133e c44e 753b
00000220: 0553 bcba 2e18 173e 9905 81bc ebbf 5cbd
00000230: e3cf 3a3d ee39 debc 53e3 b63c 8c96 9b3c
00000240: 1bed c93c aa3f 97bd 9c4a 043e 923f 213e
00000250: c7d3 ad39 538c 2f3c ce2d 053c 5ff1 95bc
00000260: 20f5 5bbd 7389 333d c1ac 2d3c 751c eab9
00000270: 1e2e 4f3d 1d72 ee3d 34ac 6b3d d951 b33c
00000280: 29b9 b83c a2c3 593c 332e 163e 42e3 46bd
00000290: 6a4e 0dbd da4b 943d c104 993e 53e8 413d
000002a0: 6433 7a3c 0741 01be 8d4d 083d a069 893d
000002b0: 9705 ccbc e141 1f3e 507f 95bd 0b0f 52bd
000002c0: 915c 0a3e f187 8d3b 21bb a43c 5f52 f0bc
000002d0: b683 e23d 9c99 03bd 6bd0 cc3c cec9 0e3c
000002e0: 92ce 09bd c3fe 843c 62cd 513d 3b84 0e3d
000002f0: 0188 1b3e dba7 fb3c 62af 163d 694c c3bd
00000300: 29da d23d a87f 16bd a148 fa3d e69b 463d
00000310: 08fe 23bd c17f 853e e1e8 c03c ec2e 10bd
00000320: c223 0e3e d20e 2b3e ebc5 2abd 87f6 3a3d
00000330: b91d 1b3d 4628 00bd 98d0 393d cdd0 a73c
00000340: 5679 15be 6980 9fbc 07c3 1ebd 1a80 ee3c
00000350: 2fa4 8abc 86db c03d c01c 1c3e 1675 c6bc
00000360: f427 133d cf06 143d 6b48 593e 10cf 323b
00000370: 9768 d73c e9fd da3c 8f27 a63d 1efe 0bbd
00000380: 90ae ac3d bc97 cc3d b0da a93c 3d93 20bd
00000390: d47d 4e3c 634c 0b3e 414f 81bb 0b14 703d
000003a0: ea82 2ebd 7cb1 693d 8505 9fbd 6fbf 61bd
000003b0: f71d 433e d20b bb3d de48 3ebd ddbd 24bd
000003c0: d33c ae3d 8fdb a93e d235 18bd bcde 963d
000003d0: 38c1 00bb a1ea 953d 2994 35be 191d 36bd
000003e0: 20b3 073e d230 cc3d 8f22 11be 4948 873e
000003f0: f9b9 003e 0eea 7ebb a67a ed3c 8bf2 bf3d
0.1423248 0.17770624 0.015436621 0.0041590864 -0.059693567 0.13837852 -0.10863511 0.005315351
-0.020945087 0.05246443 0.066686355 0.10949883 0.099020965 0.08785508 0.05007614 0.03304508
-0.057288997 -0.010941213 0.08511648 -0.026389787 0.45192483 -0.040131155 -0.04291794 0.019249678
-0.073949546 0.09889773 -0.08694282 0.024881264 0.03020622 0.12125896 0.13347201 0.07669389
0.019188983 0.038593877 0.20723327 -0.06652119 0.08073512 0.054212775 0.053652234 -0.010772433
0.10840961 0.05116899 0.17674279 -0.0051905913 -0.03778873 0.055241242 0.031633645 0.26793608
0.12219936 0.118251234 0.18522571 0.034084387 0.029354826 0.0137995705 0.10051553 -0.047680844
0.15447292 -0.0056140437 0.045223337 -0.10260279 0.18678232 0.028532859 -0.022762042 0.09959866
-0.012808702 0.19690627 0.018833742 0.0014394481 0.14454432 0.2589881 0.032382622 0.06077101
0.017362751 0.008956779 -0.04984579 0.09950771 0.0064782025 0.011458464 -0.028673999 -0.13972758
0.044494506 -0.1250781 -0.010333275 0.03376166 -0.14722265 0.022175496 -0.18021233 0.14713274
-0.15139417 0.04445378 -0.020329718 0.0527047 0.08738616 0.09742339 -0.06645677 0.09715715
0.11748241 0.04835786 0.059033964 -0.03510935 0.08878655 0.04733199 -0.02563581 0.13451196
0.25097218 0.020951297 0.042373493 0.066862874 0.047785383 0.07171442 -0.07924137 0.09307655
0.04774289 -0.0052217236 -0.0064907107 0.22254702 0.031782165 0.11998958 0.26593915 0.0787946
0.10994552 -0.034302846 0.044753898 0.16717225 0.08224014 0.0014704 -0.032810424 -0.11754571
0.011479554 0.11941979 -0.047143795 -0.09728032 0.0146917505 0.12018552 0.14429305 0.0037430981
-0.0014368003 0.14755318 -0.01574974 -0.053893965 0.045608412 -0.027127232 0.022325194 0.018992685
0.024649194 -0.0738519 0.12919086 0.15746906 0.00033154918 0.010714608 0.0081285965 -0.018303571
-0.053700566 0.043832254 0.01060027 -0.0004465316 0.05058109 0.11642859 0.057537273 0.021889614
0.022549229 0.013291271 0.14666061 -0.048556574 -0.03449861 0.0724103 0.2988644 0.047340702
0.015271042 -0.12622462 0.033277083 0.067095995 -0.02490501 0.15552475 -0.072996736 -0.051283877
0.13511874 0.004319184 0.020108761 -0.029336153 0.11060278 -0.032128915 0.025001725 0.008715106
-0.033644266 0.016234761 0.05122126 0.034794074 0.151886 0.030719688 0.03678835 -0.095360585
0.10295517 -0.036742836 0.12220884 0.04848852 -0.040037185 0.2607403 0.023548545 -0.035201
0.13880828 0.16704872 -0.041692656 0.045645263 0.037870143 -0.031288408 0.045364946 0.020485306
-0.14597067 -0.01947041 -0.03876021 0.029113818 -0.016923992 0.09416871 0.15245342 -0.024225753
0.035926774 0.036139306 0.21219032 0.0027284063 0.02629499 0.026732402 0.08113014 -0.034177892
0.08431733 0.099898785 0.020734161 -0.039202917 0.012603242 0.13603358 -0.0039462154 0.058612864
-0.042605318 0.057054028 -0.07764725 -0.055114206 0.190544 0.09133114 -0.04645621 -0.04022013
0.08507695 0.33175322 -0.037160702 0.07366702 -0.0019646417 0.073201425 -0.177323 -0.044461343
0.13251925 0.09970249 -0.1417334 0.26422337 0.12570943 -0.0038896832 0.028989147 0.09372433

bn1.running_mean f4 [256]
00000000: 9654 9522 5a79 2e3e aaec c540 444a 5e3d
00000010: 5c4c a43d 82ed 1a3f 49a1 703f 0400 0000
00000020: b1f5 463d b0c7 e53d d7e6 8740 68a3 283f
00000030: e9b8 b23f af30 b53e 257f 0640 e2c1 b83d
00000040: a927 a33f 3250 8d3e b287 5e40 de00 423e
00000050: 8c3f fd3e 15e6 793f 013b 5740 412d 0440
00000060: df5b db3e 9386 263d 8432 9b40 037c ef3e
00000070: 97ec 0340 1f58 4040 dd28 0240 0aa0 f33d
00000080: cb14 6e3f 341a c33e c357 653e 0b91 673e
00000090: 1502 283e 6114 2f3f e6b4 3d3f 0eb6 d63d
000000a0: 3556 293e ddc5 923f 835d bd3e 22b8 f13f
000000b0: 9e3b 8c40 abaf e73d 1d04 2b3d b169 a23f
000000c0: 1af9 3340 34d4 d63e ad31 1240 58ae 113f
000000d0: 74ce 493e ef9c 4f40 ee1a b73e e4aa 3e40
000000e0: a7a4 eb3d 833c e23f 32be 6b3f 65fd d53d
000000f0: b88b 9a3e e18a da3f 9d26 243f a330 473a
00000100: 0eff c83e c852 303f 839d 8f3f a18f 7040
00000110: ff3c f03e c128 203f 6bfa 983f cc1b e23f
00000120: abb7 483f b1b4 2b40 d975 b83d e090 a83e
00000130: 624d 333f 67f7 ad40 0fcc c13f f010 0b40
00000140: f4bb 123e e723 2240 aa05 ce3e f572 ae3f
00000150: b51e f540 b8a7 823e 1c6a a63e 82e2 443e
00000160: ce9b da40 c83b 933f 837b 3740 fc44 1d3f
00000170: 3fd6 893e a581 023e 8acd 9d3f 22ed 6f3f
00000180: 74cb 3d3f d76c cf3f 9052 053f 2ec0 2340
00000190: 8faf 853f fc89 463e 899f 9c3e 22d3 8e3e
000001a0: 0400 0000 b15b 843e 9cd7 c33f 6274 343f
000001b0: dd9a ce3f f20e d43d 864f b53e bb5e 1f3e
000001c0: 87e8 c93f 63c5 233f fe41 dd3d 17a9 3c3f
000001d0: 0400 0000 0cb3 6b3e 4e8b e23d 67a5 1740
000001e0: 649f 303f 3ac4 5140 5123 9a37 8119 323f
000001f0: e5e4 093e 3839 463e 124a ad3f e077 a840
00000200: e7da af3f 534a 0440 fabe 103f a51f 823c
00000210: cd0d dc3f 0400 0000 808e bc3d 823b f732
00000220: 4bcd 8a40 0400 0000 cd76 a83d 9efa 0f3e
00000230: 147c 5f40 bc1a c43c 5139 a23f 6207 6d3e
00000240: 1cf1 1540 7cd1 a839 2a4b 0940 77f4 953e
00000250: 61ca 2d3e 29cd 113f a971 083e 0b19 963f
00000260: 4da5 d140 fd7e e53d b698 ab3e 6a60 713f
00000270: da5b d735 eb7a 2f3f 55dd 323f 75c6 5240
00000280: 0358 b13e aba8 c133 286b 4e3e b67e 7a40
00000290: 8c07 be3f 4df0 2740 c302 1640 9579 743e
000002a0: ccbe 933a e345 1c40 e89f 713f 66c6 043e
000002b0: 8e14 a717 9396 053f 4bca 2340 161e d93e
000002c0: 56b8 0c3f f94b 0e3a 1636 cb3e 2ac0 6540
000002d0: a5cc 953f c3f4 e53d 7c9e e63e 81eb 5f3d
000002e0: 50ab 253e 52ca 3d40 959f 1640 3da3 9240
000002f0: 0400 0000 bdc3 ba3f 09e9 9540 fb7b 473e
00000300: 6617 aa3f a4ae 543f adb1 623f 2995 6440
00000310: eb15 a540 4ab2 903f 6c68 8e3e 31fc 8940
00000320: 46e7 6740 7fb7 613f 37ff 093f 5a88 9d3e
00000330: be7f 193e c916 493f e3a8 333f 5970 663f
00000340: 2fa2 4340 09b7 0d3f bf25 f740 47f0 b03f
00000350: b232 613e f2ee 793d 2933 eb3d 1188 6b3e
00000360: 00a5 5c3f fe0d 1d3e 5298 8a3f 727a 6940
00000370: 3c35 0c40 2c54 7a40 501f 9d3e e0b0 6c3f
00000380: 9dea 923e 2fba 0340 24f8 963e 48d2 bd3f
00000390: ef73 413f cbed 633d 34cd c240 d205 433f
000003a0: dc75 2c3f f176 9a3f c2db c03d 7696 c63e
000003b0: 40c5 6240 7ff2 8935 9cc0 a53d 24e9 ef3e
000003c0: e246 2a3f 03f2 993f 9b9b 6540 ad52 2e3f
000003d0: 7ee2 0340 af7c 473f 0df4 8d3e 1c17 f93f
000003e0: 14c3 0e3f 6e15 3540 0400 0000 3bd4 853e
000003f0: c289 9840 0317 c23d 23d5 2640 256d a738
4.047609e-18 0.1703848 6.1851397 0.054270044 0.08022377 0.6051866 0.939961 6e-45
0.048574153 0.11219728 4.2469287 0.6587434 1.396268 0.35388705 2.1015103 0.09021355
1.2746478 0.27600247 3.4770322 0.18945643 0.49462545 0.976167 3.3629763 2.065262
0.4284353 0.040655684 4.8499165 0.467743 2.0613153 3.0053785 2.033744 0.118957594
0.9300048 0.3810593 0.2239676 0.22613923 0.16407044 0.6839047 0.74104154 0.10483943
0.16536792 1.1466633 0.36985406 1.8884318 4.3822775 0.11312803 0.04175197 1.2688504
2.812079 0.41958773 2.284282 0.5690665 0.19707662 3.2439535 0.35762733 2.9791803
0.11506014 1.7674717 0.9208709 0.10448722 0.30184722 1.7073632 0.6412142 0.0007598495
0.3925709 0.68876314 1.1219944 3.7587664 0.46921536 0.62562186 1.1951421 1.7664733
0.78405255 2.6829035 0.09006853 0.3292303 0.7003995 5.4364505 1.5140399 2.1729088
0.14329511 2.5334413 0.40238696 1.3628832 7.6599984 0.25518584 0.3250283 0.19227031
6.831519 1.1502619 2.8669136 0.61433387 0.2692127 0.12744768 1.232835 0.9372121
0.7413857 1.620509 0.52079105 2.5586047 1.0444201 0.19388574 0.30590466 0.27895457
6e-45 0.25851205 1.5300174 0.70490086 1.614101 0.10354413 0.35412234 0.1556348
1.5774087 0.63973063 0.10803603 0.7369551 6e-45 0.2301752 0.110617265 2.3694704
0.6899321 3.2776017 1.8374676e-05 0.69570166 0.13466223 0.19357765 1.353823 5.264633
1.3738679 2.0670364 0.5654141 0.01588423 1.7191712 6e-45 0.09206867 2.8781646e-08
4.33756 6e-45 0.082257845 0.14060447 3.4919481 0.02393853 1.2673742 0.23147348
2.3428411 0.00032199535 2.1452127 0.29288074 0.16971733 0.56953675 0.13324608 1.1726393
6.5514283 0.11205862 0.33514947 0.9428774 1.6045481e-06 0.6854693 0.69868976 3.2933629
0.3463746 9.0179434e-08 0.20158064 3.9139838 1.4846053 2.6240418 2.3439186 0.23874505
0.0011272072 2.4417655 0.9438462 0.12966308 1.0797311e-24 0.52182883 2.559222 0.42405766
0.54968774 0.0005428191 0.39689702 3.5898538 1.1703078 0.11228325 0.4504279 0.054667953
0.16178632 2.9654737 2.35349 4.5824265 6e-45 1.4590985 4.6846967 0.19480889
1.3288391 0.8307898 0.8855236 3.571604 5.1589255 1.130441 0.27814043 4.312035
3.6234908 0.8817062 0.5390505 0.3076809 0.14990136 0.7855039 0.70179576 0.9001518
3.056774 0.55357414 7.7233577 1.3823327 0.21991995 0.06101889 0.114843674 0.23001124
0.8618927 0.15337369 1.0827734 3.6480985 2.1907492 3.9113874 0.30687952 0.9245739
0.2869462 2.0582387 0.2948619 1.4829798 0.75567526 0.0556467 6.087549 0.76180756
0.6736734 1.2067548 0.094169155 0.38786668 3.5432892 1.0277871e-06 0.08093378 0.4685756
0.6651441 1.2026981 3.5876224 0.68094903 2.060699 0.7792463 0.27725258 1.9460177
0.55766416 2.829433 6e-45 0.26138481 4.766816 0.094770454 2.6067588 7.98351e-05

bn1.running_var f4 [256]
00000000: fa61 4422 663e 643e 1106 0c41 07b6 9b3d
00000010: 674e 063e ce7d 273f dd36 163f 0400 0000
00000020: 325a cc3d a57a 763e 16f3 4541 debf ac3f
00000030: 6998 c740 6b42 843f 5a10 8640 5147 603e
00000040: 1508 9e40 e04a 783f c188 1841 4ff2 d43e
00000050: 55d1 d93f f760 163f 04fe f740 0bd3 7940
00000060: f30a 343f df98 ad3d 7c4f 0641 1d7a 3a3f
00000070: c4f2 3741 08e7 9e41 55db 1f41 f242 b43e
00000080: 0423 1240 d16d d43f 1ae2 3d3f 1f94 213f
00000090: 36a7 ba3e 108f 1740 89e1 4e40 e7a3 7f3e
000000a0: 4cfa b03e ce15 f040 800f 773f e279 db40
000000b0: 6f26 4441 eb4b 3e3e 2e1c ce3d 643e 9840
000000c0: 84d3 b141 dd42 bf3f fa8a fa40 7d84 2040
000000d0: c860 143f cdec 4041 4053 673f 9f8e 1241
000000e0: 4ad0 be3e 76a7 a140 20f5 5340 2835 5f3e
000000f0: d027 8b3f f869 3340 5194 0b40 9d42 9d3a
00000100: 9a36 893f b43f 4240 5dd1 1c40 5aea 3141
00000110: 5abb 0340 d25f 1f40 7bd5 5c40 20f4 aa40
00000120: d582 6f40 3a5d 1d41 0fc3 393e 3d03 8c3f
00000130: fdd7 1540 eca2 7941 9f7f a840 2d44 ca40
00000140: a870 7f3e 7482 2140 0f5b 643f a722 9d40
00000150: 09d8 eb40 979a 343f 1020 643f 1e6e ad3e
00000160: 5f39 8641 d8bd 6540 46a7 d540 fc65 e03f
00000170: c35d 4b3f 2160 823e d270 0b40 edfc be40
00000180: c67a 4a40 46e2 9840 a4ec ab3f cd98 a041
00000190: bb29 7140 bad1 0c3f b502 2c3e 5a7c 343f
000001a0: 0400 0000 bb58 5a3f cf48 db40 227f 0240
000001b0: 02b8 e140 69cf 6b3e 8379 a43f 25cd 983e
000001c0: 0807 f040 ed97 c83f f3e8 543e 7524 5840
000001d0: 0400 0000 e478 103f ef3e 513e 1379 0441
000001e0: 7e75 3940 bc26 5541 2455 7436 9987 3a40
000001f0: 319f 9f3e 9e55 e13e 6fe4 ca3f fb9c 9040
00000200: 16c1 1340 428d d640 066c 0c40 87ac e23c
00000210: 11e7 b140 0400 0000 193e 333e 0409 9830
00000220: 859c 2b40 0400 0000 bf43 003e 12a7 9a3e
00000230: 5e67 a241 5bee e83c fb04 db40 f13d 0f3f
00000240: 8e99 6840 19cf 3e39 e490 fa40 f3d9 b63e
00000250: 6499 803e 2fb0 af3f e6e2 a23e 9d08 0640
00000260: b0c3 6541 3fa5 653e 6dca a13f d6fc 8440
00000270: 45f3 f734 2c38 1e40 84a5 3c40 1886 db40
00000280: cee1 213f c882 0832 23f0 0a3f a68b d740
00000290: 5260 8b40 e3ba dc40 ff11 1741 fee5 083f
000002a0: f934 5e3a aee9 7741 8c16 5f40 f462 a73e
000002b0: 9d35 9014 a959 2340 ce5f 2441 7ec2 8d3f
000002c0: 8ef9 933f 4021 b139 a85b 553f 6944 7141
000002d0: 78bb 2440 c2fc 803e b221 c53f ad42 b53d
000002e0: 77ac b23e 7c75 7c41 36a2 ce40 41e5 4041
000002f0: 0400 0000 85b1 7040 494e 2441 dd9a ff3e
00000300: 4738 3940 3553 3640 7ec0 0b40 6fb3 9b41
00000310: 7b0e 1041 b0f1 b240 649e 243f 78f1 7641
00000320: cf03 c540 4a8f b640 a8d6 e53f b1ec 723f
00000330: 8f9d 873e 1603 0940 da5b 6540 2a53 8d40
00000340: 3271 0941 ce48 1240 b122 b640 0165 cc40
00000350: 1752 ec3e bd4f 323e 6ba5 733e c23b 373f
00000360: 7be9 9740 78fb 703e 4d70 c340 9f75 0c41
00000370: 1a15 db40 0f7f c141 9f4d 4a3f 1f67 c43f
00000380: f725 043f 6746 9640 4e69 713f 8e11 eb40
00000390: dbfc 4140 c4a6 0f3e 9997 6841 0373 4d40
000003a0: d38c e43f f9aa a640 a797 443e 6c85 0e3f
000003b0: 14e1 9940 f0bd 1235 94b2 f93d e068 283f
000003c0: 6db6 6040 ac7d 6840 e032 ab40 2efc 1d40
000003d0: 31f8 ae40 0ddc 2a40 8b81 873f f7b8 3f3f
000003e0: efdf 8c3f f7af 0341 0400 0000 557e 2f3f
000003f0: 0327 6741 fd07 8d3e 8764 d440 ce75 8737
2.6614822e-18 0.22289428 8.751481 0.07603078 0.13115846 0.6542634 0.58677465 6e-45
0.09978141 0.24070223 12.371847 1.3496053 6.2373548 1.0332769 4.189496 0.21902205
4.9384866 0.9698925 9.533387 0.41591117 1.7017008 0.58741707 7.749758 3.903506
0.7032921 0.084764235 8.394405 0.7284258 11.496769 19.862808 9.991048 0.35207325
2.2833872 1.6596013 0.7417313 0.6311664 0.36455697 2.3681068 3.2325156 0.24964868
0.3456596 7.5026617 0.96508026 6.8586283 12.259383 0.18583648 0.100639686 4.757616
22.22828 1.494228 7.829465 2.5080864 0.57960176 12.057813 0.90361404 9.15982
0.37268287 5.051692 3.3118362 0.21797621 1.0871525 2.8033428 2.1809275 0.0011998002
1.0719788 3.0351381 2.4502785 11.119715 2.05831 2.4902234 3.4505298 5.3423004
3.7423604 9.83526 0.18140815 1.0938488 2.3413079 15.602276 5.2655787 6.3208222
0.24945319 2.5235872 0.89201444 4.91048 7.3701215 0.70548385 0.89111423 0.33873075
16.778013 3.5897121 6.676669 1.7531123 0.79439944 0.25463966 2.178761 5.9683747
3.1637435 4.7776213 1.3431592 20.07461 3.768172 0.5500752 0.16797908 0.70502245
6e-45 0.8529164 6.852638 2.0390096 7.053712 0.2302834 1.2849582 0.29844013
7.5008583 1.5671364 0.20791988 3.3772252 6e-45 0.56434464 0.20434164 8.279559
2.8977962 13.321957 3.6408392e-06 2.9145262 0.3117614 0.44010633 1.5850962 4.5191627
2.30866 6.7047434 2.1940932 0.027670158 5.5594563 6e-45 0.17504157 1.1062018e-09
2.6814282 6e-45 0.12525843 0.3020559 20.300472 0.02843397 6.844358 0.5595389
3.6343722 0.00018196962 7.830187 0.35713157 0.25117028 1.3725642 0.31813735 2.0942757
14.360275 0.22426318 1.26399 4.155864 4.6184337e-07 2.4721785 2.9476023 6.860119
0.63235176 7.945978e-09 0.5427267 6.735797 4.355508 6.8978133 9.441894 0.5347594
0.00084765215 15.494551 3.4857512 0.32692683 1.4561431e-26 2.5523474 10.27339 1.1074979
1.1560533 0.00033784844 0.8334298 15.079202 2.5739422 0.2519284 1.5400908 0.08850608
0.34897205 15.778683 6.457301 12.05597 6e-45 3.760835 10.269113 0.4992284
2.89406 2.8488286 2.1836238 19.462614 9.003535 5.592003 0.64304185 15.433952
6.156715 5.7049913 1.7956133 0.9489241 0.26487395 2.1408134 3.5837312 4.416402
8.590136 2.2856936 5.691735 6.3873296 0.4615638 0.1741323 0.2379357 0.7157556
4.747251 0.23533428 6.1074586 8.778716 6.846326 24.18704 0.7902469 1.534397
0.5162043 4.696094 0.9430131 7.345893 3.031058 0.1402846 14.537011 3.2101448
1.7855476 5.2083707 0.19198476 0.55672336 4.8087254 5.4665634e-07 0.12192264 0.65785027
3.5111344 3.6326704 5.3499603 2.4685168 5.467797 2.6696808 1.0586408 0.7489161
1.1005839 8.23046 6e-45 0.6855214 14.447024 0.27545157 6.6372714 1.6148111e-05

fc2.weight f4 [128, 256]
00000000: 4168 81bb 7d1e cdbd ca00 293d 9ee4 c03d
00000010: f9a6 3bbe dd8a 6b3b f872 793d db72 f93d
00000020: db35 253d 6c82 313e a616 c1bc 14ea f63c
00000030: dea3 0b3e 9e7a 92be e3bb 9b3c fd2c b03c
00000040: 6965 edbd ddf2 d73c 3fc7 693c af18 89bc
00000050: 4fd5 91bd 6305 343e 5dbc ff3d aa7e 03bd
00000060: a19a 1f3d 1bc2 1a3e 226d 6fbe 5077 ffbd
00000070: 1c00 b43c 972a dcbc 3348 e23c 0185 a4bd
00000080: 79fd 23be 7b41 9bbc 6c7d 46bd 9e1e 12bd
00000090: db56 883c b4ed 573d 0cd9 033e 551d b2bd
000000a0: 70b7 dd3d 2ec0 b9b9 da41 003e 3c5b 973d
000000b0: 2648 c03c 5d99 3d3e 83c2 2abe c139 253e
000000c0: f383 853d d20e 1dbe c1c2 bb3d 32a2 823d
000000d0: 0ab9 41bd 925f 653e e528 9e3d 807b 15be
000000e0: dd49 aa3b 010f de3d 2d82 d83c 19fd 14be
000000f0: 1f57 373e 0fcf 173c 998e 25bd 6079 943d
00000100: 727f f5bd ccee 9abb 674f b0bc 3a6e fd3c
00000110: d496 c23d cc53 19bc 4ff5 82be 5e37 393c
00000120: 2991 4cbe d0e1 e23d 9a0f 263e 4ce2 96bc
00000130: 7dce b63d 48b2 2b3e 3f38 cf3d 700a 93be
00000140: b469 673c f157 e3bd 7d17 d0bd 352a 883d
00000150: 18fa af3d 0752 1f3e e8a9 0e3c 2744 683e
00000160: be3a a3bb 1087 773c e849 2dbc d0d9 a3bc
00000170: 8880 ff3c a705 713d 78a3 f43d e415 0f3c
00000180: 02a0 6dbd b953 a3bd 33ef 073e 95d9 5f3d
00000190: 541e 0dbe 8d7b c93b d0a2 e23d 21fd e43b
000001a0: ab19 34bd 8cd6 c33c 3230 553d 587d a23d
000001b0: cc8f ce3d 9d9a e3bc 8fb7 0fbe d72f e1bc
000001c0: eaa1 90bc 1130 d93d 1b2b c0bd 01f3 073d
000001d0: 0367 08bd 7760 203d c368 5cbd 65f5 d3b6
000001e0: 85e2 3bbc 2604 0d3d 2add 2c3e 9034 1e3d
000001f0: 8022 09be b35f b13d 0295 143d 5225 c9bb
00000200: 807e 2f3e c08a 9f3d 38de 103d cde6 66bd
00000210: f157 633e 6160 893c 7cc0 88bd 6c0e 0f3d
00000220: e0a1 4d3d ea63 07bb 1ea4 6d3e c8ac 53be
00000230: aef2 e83c a236 3cbd 7a38 1d3d d4f9 0bbd
00000240: b6c7 ae3d 0f14 01be 9c16 203b ee8e 213c
00000250: ab76 213d 5ca7 d7bd d148 97bd 706f c23d
00000260: 9596 733d 499c d9bd c80e 7b3c 48a6 1f3c
00000270: f831 823c ad93 e73d 2fd8 f7bd d11b dc3d
00000280: 9e8c cb3c 310e 49bd f81e 883c 63df 1c3d
00000290: 3934 d03c f806 8ebd e83c 77bd c23c f33c
000002a0: a0dc a1bd d190 89bd 065c 35be 53b2 b83d
000002b0: 3d16 f9bc 12b6 393d 3ef7 46be d2a6 6ebd
000002c0: 080d 49be bd1c 96bd b434 7cbc e14c 2dbd
000002d0: 9af6 94bd 8adb 30bd f2a0 8fbd 7d35 8bbe
000002e0: deaa 8e3d c8f6 373c 4dfb 1d3e 5246 61bd
000002f0: e75c 993d 1316 b43d 2e4c 9f3d 00c6 73be
00000300: a8e3 653c acfd f03c c010 a33d 53f2 a1bb
00000310: b804 f8bc 4880 2b3e cd3c a63d 1f40 593d
00000320: 8a7c 563d 3406 8b3e f0f1 5ebc 16fa 35bc
00000330: a3ec ae3d 0066 22be e3af 93bd 2d36 773d
00000340: ff5d 993d ce59 d23c cd21 da3d c35d aebc
00000350: 0d6b 1abe 36ca 7c3d a332 c03a 5874 e23d
00000360: 2906 46bd dd5d ddbc 0c1f 8b3e 0c09 0f3e
00000370: a896 b73d 74ea b23d a6ef 0ebe d18a 2cbd
00000380: c89b fa3d 95c1 0bbd b624 7a3c b259 1abc
00000390: da6d 313d f741 95bd 47e5 0abe d84e 37bc
000003a0: e8e1 37bc e3d1 b93d 2e28 09bc 25fd e2bd
000003b0: e0f0 243d a664 39be 591f cb3d 43a5 473c
000003c0: 9679 503d 1c88 073d 6c01 a8bd 622a 81bd
000003d0: a04c f03c 6ac1 513c 9b78 bdbd 0111 283d
000003e0: cdd9 a03d 61e9 94bd 100d 5bbc fa16 82bd
000003f0: 53b8 883d 9c07 f4bd ce48 9ebd 8ca7 793c
-0.0039491956 -0.10015581 0.041260518 0.09418605 -0.18325414 0.0035940923 0.06090066 0.1218011
0.040334564 0.17334908 -0.02357037 0.030140914 0.13636729 -0.28609174 0.01901049 0.021505827
-0.11591608 0.026360923 0.014268695 -0.016735403 -0.071207635 0.1758018 0.12487099 -0.03210322
0.038965825 0.15113108 -0.23381475 -0.12473929 0.021972708 -0.026875777 0.027622318 -0.08033181
-0.16014661 -0.018952122 -0.048459455 -0.03567373 0.016642978 0.052716926 0.12875766 -0.08697001
0.108260036 -0.00035429135 0.1252512 0.073904485 0.023471903 0.18515535 -0.16675763 0.16135313
0.06519308 -0.15337685 0.09168006 0.063785926 -0.047295608 0.22399738 0.07722644 -0.14597893
0.0051967935 0.108427055 0.02642926 -0.14549674 0.17904328 0.009265675 -0.040419195 0.07249713
-0.11987199 -0.004728174 -0.021522237 0.03093635 0.095014244 -0.009358358 -0.2557778 0.0113047045
-0.19977249 0.110782266 0.16216889 -0.018418454 0.08926103 0.16767228 0.1011815 -0.287189
0.014124323 -0.11100758 -0.1016073 0.06648675 0.085926235 0.15558635 0.008707501 0.22682248
-0.004981368 0.015107885 -0.010576703 -0.020001322 0.031189218 0.05884328 0.11945242 0.0087332465
-0.058013923 -0.07974953 0.13274841 0.05465086 -0.137811 0.0061487616 0.1106621 0.006988183
-0.04396979 0.023906015 0.052047916 0.07934064 0.10086021 -0.027783686 -0.14034866 -0.027488632
-0.017655332 0.10604871 -0.09383222 0.03319073 -0.033301365 0.039154496 -0.053810846 -6.3168577e-06
-0.011467581 0.034427784 0.16881242 0.038624346 -0.13392067 0.08660831 0.036274917 -0.006138482
0.171381 0.07790136 0.035368174 -0.056372453 0.22201516 0.01676959 -0.066773385 0.034925863
0.050203204 -0.0020658919 0.23207137 -0.2067138 0.028436031 -0.04595054 0.03838394 -0.0341738
0.085341856 -0.12605308 0.0024427539 0.009860737 0.03941981 -0.10529968 -0.073869355 0.09493911
0.059469778 -0.10625512 0.015323348 0.009744234 0.015892968 0.11307464 -0.121017806 0.10747493
0.024847325 -0.0490858 0.01661633 0.038298976 0.025415527 -0.06934923 -0.06036082 0.029692058
-0.07903409 -0.06717075 -0.17710885 0.09018388 -0.030406112 0.04533965 -0.19430253 -0.05826456
-0.19633877 -0.073297 -0.015393425 -0.042309646 -0.07273598 -0.04317812 -0.0701312 -0.27189246
0.06966184 0.011228271 0.15427895 -0.054998703 0.07488423 0.08793273 0.07778202 -0.23806
0.014031328 0.029417835 0.07962179 -0.0049422174 -0.030275688 0.16748154 0.081170656 0.053039666
0.052364863 0.2715317 -0.013607487 -0.011106988 0.085412286 -0.15859222 -0.07211282 0.0603544
0.074886315 0.025677588 0.10650978 -0.021284943 -0.15079899 0.06171628 0.0014663528 0.11057347
-0.04834572 -0.027022297 0.27172124 0.13968295 0.08964282 0.08736125 -0.13958606 -0.042124573
0.12236744 -0.03412016 0.015267542 -0.009420799 0.043317653 -0.072879724 -0.13564025 -0.011188231
-0.011223294 0.09073236 -0.008371396 -0.1108344 0.04026878 -0.181048 0.099180885 0.012185398
0.050897203 0.03308879 -0.08203396 -0.06306912 0.029333413 0.012802461 -0.09251519 0.04103184
0.07854042 -0.07271076 -0.013369814 -0.06352039 0.06675782 -0.11915514 -0.0772873 0.0152377

fc2.bias f4 [128]
00000000: 4755 a33d 8cf0 27bb e564 d0bd 7bdc a03d
00000010: b9af ecbc b621 adbd f5f6 8bbc e063 51bd
00000020: bbba 0c3c edfb 69bd 39ee 73bd fd24 0dbd
00000030: d6d9 fabc eec8 f83b 400d debd 39b5 28bd
00000040: bb6d b9bd e719 7bbb 77b5 273d 039d 743d
00000050: 783b dcbc 4978 053e 5240 513d eeec 05be
00000060: 9a7f edbd 19cb c7bd 113c 5a3d 8fb3 3abd
00000070: b7cd e43c 1e8e 013d f120 b9bd 9aaf 64bc
00000080: b1e8 14be 14dc 24bd 9eed 843d 7fc4 a3bb
00000090: 99c4 493d 0747 9c3c 4503 9e3c 9141 a3bd
000000a0: c716 80bd e76b 14be 6f35 b8bd 4541 5f3d
000000b0: 315a ddbd d495 14be 70ff 7cbd 1fdb 0f3d
000000c0: 27b9 a9bd 522d 56bc fdf0 db3d b712 a9bd
000000d0: cfba 273d 42c4 a1bc 6752 1e3e eb29 eabd
000000e0: e081 abbd 95db f9bc ea2e 233d 4b3f a5bd
000000f0: 3db5 edbd 093f 5cbc 2af7 eebd 66f4 abbc
00000100: 12de 403c e36e 053b d7d4 3fbe 228b 4e3c
00000110: 66cd 9abd 49e6 f93b a5c7 513d 9424 f0bc
00000120: f42c 613c e377 d23d 3cfa 49be 2a2b 653d
00000130: 7858 8dbd 53be 603c 0af6 283c 245f 87bc
00000140: 544b 93bd 6641 58be 350c 91bb 570b 1ebe
00000150: a14b a13d adaf 9fbd 440f a7bd 4a63 d1bc
00000160: 9d46 afbd 43a1 a0bc 4c2b 4ebe 39a6 a93c
00000170: ecf3 46bc 4b32 56be 891b 4abb f5f4 873d
00000180: 5952 9bbd ddc7 433d 34d7 7d3d 54c4 7cba
00000190: ff44 87bd 54d1 43bd 51aa 1d3d 3a2f ab3d
000001a0: c7ee ecbd 7bd8 a3bd 6743 583b d931 a1bb
000001b0: 7c9e 233d 9ac8 483c 047e d23c 029c e83d
000001c0: e2cb 003e 796c b2bd 6b8e ddbd 2f13 a83d
000001d0: 8968 adbd 8582 72bd 61e4 92bd e56e 863d
000001e0: 763a a2bd fc94 20bd 03f7 98bc 79b2 be3c
000001f0: 3dbb f6bc 1d62 713d c725 2cbd 808d e1bd
0.0797525 -0.0025625555 -0.10175494 0.07854553 -0.028892385 -0.084536955 -0.017085532 -0.05112064
0.008589442 -0.05712502 -0.05955336 -0.034459103 -0.03062145 0.007592312 -0.10842371 -0.041188452
-0.090541326 -0.0038315 0.040944543 0.05972005 -0.026883826 0.13034166 0.05108673 -0.13078663
-0.11596604 -0.09755535 0.05327994 -0.045581397 0.027930124 0.031629674 -0.09039486 -0.013957882
-0.1454189 -0.040248945 0.064906344 -0.0049977894 0.049259756 0.019076837 0.019288668 -0.0797149
-0.062543444 -0.14494286 -0.08994567 0.054505605 -0.10808218 -0.1451028 -0.06176704 0.03512108
-0.08287268 -0.013072329 0.10739324 -0.08255523 0.04094964 -0.019746903 0.15461121 -0.114337765
-0.08374381 -0.030500213 0.039839663 -0.08068713 -0.11606834 -0.013442763 -0.116682366 -0.020990562
0.011771696 0.0020360283 -0.18733536 0.012606414 -0.07558708 0.007626329 0.051215786 -0.029314317
0.013743628 0.10276773 -0.19724363 0.055949368 -0.0690164 0.013717252 0.0103125665 -0.016524859
-0.07192102 -0.21118698 -0.004426504 -0.15434013 0.07875753 -0.07797179 -0.081572086 -0.02556004
-0.0855839 -0.019608146 -0.20133704 0.020709144 -0.012143116 -0.20917623 -0.0030839166 0.06638519
-0.07584066 0.047798026 0.06197281 -0.0009642292 -0.06604957 -0.047807053 0.038492505 0.08358617
-0.11568981 -0.08000275 0.003299916 -0.0049192724 0.039946064 0.012254858 0.025694855 0.11357881
0.12577775 -0.08712096 -0.1081818 0.08206784 -0.08467204 -0.059206504 -0.07172466 0.0656412
-0.07921307 -0.039204583 -0.018672472 0.023278462 -0.030118579 0.05893146 -0.042028215 -0.11013317
