checkpoint_critic.pth (torch, 165956 bytes, 9 tensors)

fcs1.weight f4 [256, 24]
-0.07884627 -0.048751466 -0.009730685 -0.02301882 0.14240615 -0.23071674 0.0007726941 -0.089792125
-0.029746989 -0.036979616 -0.008757836 0.070630886 0.24941447 -0.08074924 -0.07608974 -0.029693138
-0.07380547 -0.11995077 -0.015549091 -0.004604101 0.13358076 0.0057851383 -0.054788142 -0.014789742
0.07717982 0.08012218 0.123326354 -0.03955747 0.11609315 -0.05278813 0.095164746 -0.00012847272
0.06053906 0.06587382 0.053472616 -0.029136341 0.1178541 0.018263798 0.09346898 -0.043770477
0.119084656 0.034932163 -0.020580502 0.057783317 0.057323113 -0.08011369 -0.0027152298 -0.03438008
0.068859324 0.022994468 0.029746724 -0.030806817 -0.17748125 -0.08300851 0.0138017 0.018303277
0.06634043 0.052490875 0.09353102 -0.0131387375 -0.19656177 -0.26534808 0.02044813 0.006816105
0.0769118 -0.00045625234 -0.0017185472 -0.07068247 -0.00058781944 -0.19245757 0.06921278 -0.052464467
0.08426652 0.037228562 -0.013694309 0.01280372 0.06561119 -0.088333055 -0.0034128658 -0.042167194
0.10941694 0.019527158 -0.051968556 -0.026214393 0.02448913 -0.036250744 -0.005421919 0.013803803
0.019984229 -0.03251034 0.035612877 -0.0065819267 0.32618654 -0.02130329 -0.06600784 -0.026938232
0.037510123 -0.046423413 -0.07084775 -0.016144989 0.13581453 -0.01902876 -0.06934527 0.059587285
-0.014153863 -0.111410506 -0.075444266 0.007932028 -0.011116821 0.10138538 -0.06913438 -0.03547412
0.0013880378 -0.11365878 -0.06399806 0.01172435 0.0134537155 -0.2781104 -0.1084774 0.058910675
-0.08161694 -0.24219942 -0.049143925 0.012075591 0.1483071 -0.09567309 0.017667215 0.028248146
-0.072748736 -0.15566222 0.0056561064 0.07010368 0.13561606 0.04070593 -0.011884491 0.12591667
0.020781036 -0.12246469 -0.012215889 0.19879663 -0.0016637641 0.17878988 -0.02418407 0.24523173
-0.000823157 0.030497586 -0.0076388903 -0.0006777376 0.12012659 0.24836333 0.005537932 -0.0051362617
0.004809198 0.037338372 -0.014552922 -0.0028390663 -0.021724172 0.16169822 0.011334401 0.010474679
-0.021923786 -0.08064018 -0.033802673 -0.0165157 -0.1592868 -0.4088659 0.034623384 0.008510191
-0.07065111 0.2628542 -0.007747797 -0.033472147 0.0891047 0.021053093 0.0030252533 -0.021036739
-0.022809051 0.31306365 -0.05485769 -0.009493374 0.17551102 -0.0985273 0.029636776 -0.04937558
0.064353034 0.26985773 0.01735115 0.0051538586 0.18639576 0.07165172 -0.06686909 0.018438242
-1.8925992e-05 0.02356356 0.016937505 -0.028453385 0.0045058867 0.3157395 -0.020349044 0.0295055
0.01243996 -0.04288912 -0.027412686 -0.046996832 0.17458703 0.03295833 0.018395087 0.050922822
-0.0045403494 0.04326912 -0.00633848 -0.04015819 -0.068288125 -0.40014538 0.0052043996 0.03799166
0.046117265 -0.027518619 0.057606503 0.008536272 0.11252731 -0.0889635 -0.056900267 0.07125374
0.05351767 -0.039264034 0.10795221 0.10208761 0.06421735 -0.012679864 0.07603714 0.072043404
0.058944743 -0.009736234 0.06213142 0.12631527 0.1964934 0.066602774 0.024785215 0.07632127
-0.035025805 0.15912914 0.009206397 0.072711855 -0.06977856 0.012200307 0.04629843 0.10227754
-0.028968746 0.16096377 -0.005809231 0.119839415 -0.039697327 -0.25927407 0.034459125 0.12816621
00000000: 277a a1bd 9eaf 47bd 736d 1fbc f791 bcbc
00000010: ebd2 113e 0241 6cbe a08e 4a3a efe4 b7bd
00000020: f5af f3bc f077 17bd 077d 0fbc eda6 903d
00000030: 8266 7f3e dc5f a5bd f0d4 9bbd 063f f3bc
00000040: 5227 97bd c0a8 f5bd 9dc1 7ebc 00de 96bb
00000050: 65c9 083e 4291 bd3b 8869 60bd ad50 72bc
00000060: 7410 9e3d 1917 a43d 8792 fc3d 0307 22bd
00000070: 3fc2 ed3d 5e38 58bd bce5 c23d a2b6 06b9
00000080: cef7 773d dae8 863d 1a06 5b3d 56af eebc
00000090: 7e5d f13d f69d 953c aa6c bf3d ac48 33bd
000000a0: a8e2 f33d 0715 0f3d 7198 a8bc 33ae 6c3d
000000b0: a4cb 6a3d a512 a4bd fff1 31bb 20d2 0cbd
000000c0: 1e06 8d3d e55e bc3c 67af f33c 945e fcbc
000000d0: a5bd 35be 5e00 aabd 8720 623c c1f0 953c
000000e0: 7edd 873d ac00 573d 318d bf3d dc43 57bc
000000f0: 7d47 49be b4db 87be d682 a73c a259 df3b
00000100: ef83 9d3d 2735 efb9 e040 e1ba f9c1 90bd
00000110: e517 1aba 9913 45be 6ebf 8d3d fbe4 56bd
00000120: ed93 ac3d fa7c 183d 185e 60bc b2c6 513c
00000130: 295f 863d f6e7 b4bd 63aa 5fbb 82b7 2cbd
00000140: fd15 e03d 6bf7 9f3c fbdc 54bd 91bf d6bc
00000150: 6e9d c83c a97b 14bd 5aaa b1bb 5929 623c
00000160: f7b5 a33c 9029 05bd cfde 113d 34ad d7bb
00000170: ec01 a73e 3d84 aebc 1e2f 87bd 91ad dcbc
00000180: 37a4 193d 7a26 3ebd a018 91bd 7f42 84bc
00000190: f712 0b3e 34e2 9bbc e504 8ebd cc11 743d
000001a0: 9be5 67bc 312b e4bd 8682 9abd 56f5 013c
000001b0: 5423 36bc 23a3 cf3d 5396 8dbd 504d 11bd
000001c0: d2ee b53a efc5 e8bd 6a11 83bd 7d17 403c
000001d0: f96c 5c3c 7d64 8ebe 6629 debd 524c 713d
000001e0: c826 a7bd 2003 78be 244b 49bd b3d8 453c
000001f0: d1dd 173e 41f0 c3bd d6ba 903c a868 e73c
00000200: 4afd 94bd eb65 1fbe dc56 b93b 8592 8f3d
00000210: f0de 0a3e 43bb 263d 2bb7 42bc 4df0 003e
00000220: fe3c aa3c c4ce fabd 2725 48bc 5891 4b3e
00000230: a912 daba b214 373e ac1d c6bc 071e 7b3e
00000240: 22c9 57ba 13d6 f93c a84f fabb 33aa 31ba
00000250: ee04 f63d f552 7e3e 8a77 b53b 164e a8bb
00000260: 7a96 9d3b 1ff0 183d 616f 6ebc a10f 3abb
00000270: e4f6 b1bc 3894 253e ecb3 393c fd9d 2b3c
00000280: 8399 b3bc ae26 a5bd ac74 0abd ef4b 87bc
00000290: 141c 23be df56 d1be 40d1 0d3d 546e 0b3c
000002a0: 87b1 90bd d394 863e 3be1 fdbb 171a 09bd
000002b0: 867c b63d 8977 ac3c 5443 463b 3d55 acbc
000002c0: 0cda babc e149 a03e 75b2 60bd 198a 1bbc
000002d0: 29b9 333e aec8 c9bd d3c8 f23c 0c3e 4abd
000002e0: 86cb 833d cb2a 8a3e 0024 8e3c b3e1 a83b
000002f0: 88de 3e3e 23be 923d a9f2 88bd cc0b 973c
00000300: 42c3 9eb7 5e08 c13c 86c0 8a3c 1317 e9bc
00000310: 1ea6 933b 9ca8 a13e 0ab3 a6bc 85b5 f13c
00000320: f9d0 4b3c 80ac 2fbd 9290 e0bc c07f 40bd
00000330: f1c6 323e 50ff 063d 4bb1 963c 7394 503d
00000340: 36c7 94bb f63a 313d 06b3 cfbb ea7c 24bd
00000350: a5da 8bbd dbdf ccbe ab89 aa3b 259d 1b3d
00000360: 75e5 3c3d ba6e e1bc ccf4 6b3d b8db 0b3c
00000370: b874 e63d 7f32 b6bd 4110 69bd 7bed 913d
00000380: 5835 5b3d 53d3 20bd 0c16 dd3d 4f13 d13d
00000390: 6384 833d 34bf 4fbc 5cb9 9b3d 7e8b 933d
000003a0: 0b70 713d ba84 1fbc 847d 7e3d ca58 013e
000003b0: 9135 493e 0967 883d 5d0a cb3c 534e 9c3d
000003c0: 3877 0fbd c0f2 223e 6ed6 163c f4e9 943d
000003d0: 10e8 8ebd cce3 473c 6ca3 3d3d e376 d13d
000003e0: dd4f edbc b0d3 243e 5d5b bebb 5e6e f53d
000003f0: aa99 22bd 92bf 84be 0325 0d3d 013e 033e

fcs1.bias f4 [256]
-0.1228918 0.1301222 0.15444985 -0.36366037 -0.07447246 -0.049460676 -0.050766513 -0.09138882
0.082771115 -0.22731243 0.08213474 -0.2046439 0.094798125 0.0014285041 -0.15252542 -0.09701323
0.009792777 0.21478468 -0.18394202 0.17966056 -0.18600138 0.099416874 -0.041123763 -0.123972245
-0.10456066 0.061411995 -0.017208165 -0.18607834 -0.24319382 0.080802456 -0.24516807 0.030410284
0.097263016 -0.15852886 -0.28138533 0.02586966 -0.08477057 0.0672984 0.014342023 -0.20987047
-0.11813177 -0.06096301 -0.15090278 0.07678381 -0.08726508 0.063446805 -0.12709662 0.010081839
0.022160264 -0.12647754 -0.2515969 0.05641722 0.16812952 -0.20467314 -0.082980774 -0.038649354
-0.18673754 -0.033558823 -0.19789271 -0.23965698 -0.16125596 -0.056214895 -0.3684604 -0.013065305
-0.009163317 -0.0033065812 0.09956957 0.04117724 0.099626236 0.0913298 -0.29130465 0.0023750004
-0.16397834 -0.034914177 -0.3384998 0.12669222 0.06785488 0.12436882 -0.03419399 -0.18780337
-0.08081735 -0.039838493 0.1622859 0.13109611 -0.12846804 0.14252365 0.13620383 -0.12467671
0.0023283826 0.083025426 -0.13276768 -0.16565005 -0.17549868 -0.077651426 -0.20282225 -0.13328698
0.28218475 -0.18775997 0.057487987 -0.1096019 -0.054896917 -0.0776516 -0.09506032 -0.11896716
-0.07020313 -0.07353831 -0.123699866 -0.27557394 0.05161143 -0.053125873 -0.24254578 -0.05542455
-0.13827357 -0.28920037 -0.42340842 0.004673102 0.2656093 -0.05571112 -0.079552494 -0.16618538
0.12938009 0.1635928 -0.06055467 -0.20034488 -0.04263944 0.038045626 0.100178525 0.17032635
-0.13098109 -0.081170335 -0.17246336 0.17253171 -0.1505484 -0.07682645 -0.112876795 -0.14735389
-0.25342575 -0.05198911 -0.17211668 -0.2076433 0.0767466 -0.08716403 0.12781258 0.12821217
-0.03991859 -0.085963726 0.15402053 0.060525425 0.04165304 -0.30797347 0.14920448 0.047673825
0.09152538 0.16138719 0.13645713 -0.2744264 -0.27634105 -0.3064893 0.105121955 0.002220837
-0.10250688 0.068412974 -0.094207354 0.026206786 -0.12857458 -0.18885098 0.123185165 -0.024689946
-0.1953301 0.19021472 0.10980547 -0.2688562 0.12680413 0.05403075 -0.31685176 -0.06946798
0.0033055327 -0.28728628 0.11757307 0.17498694 -0.40168956 0.2280808 -0.23268406 -0.22779924
-0.22431417 -0.2529794 0.02768458 0.22008905 0.10125879 -0.107249655 0.058962394 -0.104192674
-0.07666674 0.013357617 0.080435775 -0.020237563 0.24294367 -0.21411715 -0.04129821 -0.13080043
0.11056331 0.04890289 -0.15836617 -0.24872032 0.049819846 0.25355744 0.09847864 0.013549163
0.16463499 -0.20107003 -0.09224972 0.28131875 -0.26183066 -0.16665368 0.027586613 -0.25644797
-0.1536124 0.03383389 0.21433923 -0.26685452 0.14760555 0.11513463 0.16330774 -0.059952825
-0.005226187 -0.09903096 -0.005375208 -0.16661412 0.138791 -0.15835243 -0.045166872 -0.034178086
-0.17560878 -0.16146587 0.007835197 -0.23982973 -0.13837284 0.07898757 -0.04767469 -0.14493518
-0.19914818 0.031469233 -0.2624071 -0.31817743 -0.071349986 -0.2392474 0.13947396 0.2619683
-0.0036987653 -0.18573861 -0.102692254 -0.21221337 0.23375581 -0.10778529 -0.2686196 -0.26941276
00000000: b2ae fbbd c13e 053e 1a28 1e3e b131 babe
00000010: 0485 98bd 4797 4abd 8cf0 4fbd 102a bbbd
00000020: e783 a93d 97c4 68be 4236 a83d 2c8e 51be
00000030: 8525 c23d a53c bb3a a02f 1cbe dfae c6bd
00000040: e271 203c 84f0 5b3e 4c5b 3cbe f0f8 373e
00000050: 2577 3ebe 139b cb3d 6471 28bd 29e5 fdbd
00000060: e623 d6bd 258b 7b3d 23f8 8cbc 528b 3ebe
00000070: cd07 79be c27b a53d 570d 7bbe fd1e f93c
00000080: d531 c73d 6455 22be bd11 90be 9cec d33c
00000090: 319c adbd bed3 893d cefa 6a3c 49e8 56be
000000a0: 12ef f1bd 59b4 79bd 4286 1abe d540 9d3d
000000b0: 09b8 b2bd 66f0 813d 9e25 02be 4c2e 253c
000000c0: 7189 b53c 5483 01be 4fd1 80be be15 673d
000000d0: 252a 2c3e d695 51be d3f1 a9bd c94e 1ebd
000000e0: 2038 3fbe fa74 09bd 63a4 4abe a468 75be
000000f0: 4820 25be 9741 66bd d7a6 bcbe dc0f 56bc
00000100: bd21 16bc 3ab3 58bb 21eb cb3d 77a9 283d
00000110: d708 cc3d 1e0b bb3d e225 95be e5a5 1b3b
00000120: f0e9 27be 2b02 0fbd d94f adbe 9bbb 013e
00000130: 80f7 8a3d 14b5 fe3d ff0e 0cbd 874f 40be
00000140: 9183 a5bd b02d 23bd 462e 263e 0f3e 063e
00000150: 208d 03be b8f1 113e 0479 0b3e 8156 ffbd
00000160: c797 183b 3c09 aa3d 40f4 07be 2ba0 29be
00000170: edb5 33be b607 9fbd a3b0 4fbe 627c 08be
00000180: 857a 903e 2644 40be 8678 6b3d f676 e0bd
00000190: 97db 60bd cd07 9fbd fcae c2bd 0ea5 f3bd
000001a0: a9c6 8fbd 419b 96bd 5b56 fdbd 0718 8dbe
000001b0: 8266 533d 849a 59bd ec5d 78be da04 63bd
000001c0: 9697 0dbe 1212 94be fdc8 d8be d220 993b
000001d0: f1fd 873e 5831 64bd 6bec a2bd 802c 2abe
000001e0: 377c 043e df84 273e 2c08 78bd 3527 4dbe
000001f0: b2a6 2ebd bbd5 1b3d 662a cd3d 086a 2e3e
00000200: e81f 06be a23c a6bd 3c9a 30be 27ac 303e
00000210: 5c29 1abe 3057 9dbd f32b e7bd f0e3 16be
00000220: 05c1 81be 88f2 54bd 5b3f 30be 72a0 54be
00000230: 522d 9d3d 0e83 b2bd 4de1 023e 0d4a 033e
00000240: ad81 23bd c00d b0bd 8fb7 1d3e 82e9 773d
00000250: 619c 2a3d b3ae 9dbe 0fc9 183e a145 433d
00000260: a971 bb3d af42 253e 6bbb 0b3e 9e81 8cbe
00000270: 937c 8dbe 2aec 9cbe 2e4a d73d 768b 113b
00000280: 21ef d1bd 1a1c 8c3d c9ef c0bd 9daf d63c
00000290: 0ea9 03be 2762 41be 8148 fc3d 9242 cabc
000002a0: 9d04 48be a6c7 423e b1e1 e03d 85a7 89be
000002b0: f1d8 013e 594f 5d3d 653a a2be 3a45 8ebd
000002c0: a3a1 583b 3017 93be 26ca f03d c72f 333e
000002d0: 41aa cdbe 038e 693e bb44 6ebe 3444 69be
000002e0: 9db2 65be 8486 81be c6ca e23c 065f 613e
000002f0: c560 cf3d b5a5 dbbd 8d82 713d f862 d5bd
00000300: 7403 9dbd e8d9 5a3c 83bb a43d 3fc9 a5bc
00000310: 3ac6 783e 8741 5bbe 5028 29bd 8cf0 05be
00000320: 046f e23d 664e 483d be2a 22be 8ab0 7ebe
00000330: e50f 4c3d 48d2 813e 2baf c93d 4ffd 5d3c
00000340: 1396 283e 4de5 4dbe 6ced bcbd 0309 903e
00000350: ab0e 86be 43a7 2abe 52fd e13c 264d 83be
00000360: 924c 1dbe 6895 0a3d be7b 5b3e 28a1 88be
00000370: e925 173e b4cb eb3d 253a 273e 1891 75bd
00000380: 6f40 abbb bed0 cabd 8322 b0bb e49c 2abe
00000390: 3a1f 0e3e 2427 22be e600 39bd 52fe 0bbd
000003a0: cad2 33be 4f57 25be 335f 003c ed95 75be
000003b0: 9cb1 0dbe 3cc4 a13d 8946 43bd e369 14be
000003c0: 80ed 4bbe e2e5 003d 395a 86be 27e8 a2be
000003d0: f11f 92bd 45fd 74be 43d2 0e3e b620 863e
000003e0: fc66 72bb 4332 3ebe 5150 d2bd 764e 59be
000003f0: af5d 6f3e 89be dcbd 8288 89be 78f0 89be

bn1.weight f4 [256]
0.8077597 0.7059718 0.728887 0.8938868 0.6476667 0.78878427 1.0835148 0.81655186
0.9944253 0.6637989 0.76378226 0.6361014 0.8065473 0.748409 0.57172155 0.6066283
0.69265693 0.64076513 0.8621278 0.7714921 0.8074539 0.72163314 0.63890845 0.6482244
0.6866288 0.8236156 1.0377121 0.7519409 0.9701871 0.99312335 0.64219314 0.60724133
0.69062454 0.8899628 1.2207917 0.6854255 0.6433854 0.6203854 0.87618524 0.5907973
0.82286537 0.7304268 0.7866084 0.69951653 0.70254695 0.95386636 0.7597959 0.7582982
0.7146441 0.8327468 1.0680252 0.63711196 0.78184235 1.0559622 0.46473563 0.71200514
0.6525525 0.6521909 0.57921267 0.68016607 1.2177671 0.83362514 0.89374375 0.6496885
0.57480896 0.698496 0.7465711 0.8002301 0.5474027 1.2755347 0.7693436 0.6729783
0.840037 1.0991491 1.3020525 0.6857581 0.6973072 0.64391947 0.70655173 1.0657165
0.62619793 0.81670177 0.7532846 1.03501 1.1459873 0.8883278 0.744177 0.7467219
0.63558143 0.7375524 0.62639344 0.6914566 0.77978486 1.0945623 0.6961867 0.70303154
0.7046629 0.7853294 0.68974185 0.72702193 0.64613295 0.6612401 0.61215204 1.0739592
0.7182569 0.8180716 0.6624459 0.68245107 0.6658304 0.76831764 0.69235015 0.6753002
0.68686813 1.2434613 1.0741894 1.3085117 0.75980324 0.6545091 0.64490485 0.5460652
1.004522 0.63110566 0.76583636 0.7764203 1.0240942 0.6363013 0.6123925 0.8426265
0.9310012 0.90876615 0.6892546 0.75776017 0.85447353 0.7768943 0.6831612 1.2129135
0.75518686 1.1680657 0.9303992 0.6617001 0.68792546 0.86773974 0.94875056 0.6469646
0.907567 0.68685913 0.7346797 0.69292355 0.7962188 0.81188196 1.190647 0.56990325
0.74262685 0.7048566 0.77735573 0.6656563 0.7263122 0.7110171 0.5258462 0.5908569
0.8646678 0.7155861 0.7712867 0.7692189 0.7204938 0.8953797 0.7355106 0.78993297
0.97264755 0.6383773 0.71924025 0.82234126 0.7205227 0.538863 1.076204 0.55320495
0.8093797 0.7684722 0.83203536 0.6330246 1.2058167 0.5518986 0.816617 0.70764554
0.62217003 1.2052773 0.6654136 0.6885495 0.6767517 0.7366778 0.7403576 0.5945643
1.1053804 0.75244933 0.71361357 0.58063495 0.47571266 0.64894164 0.7455014 0.62376463
0.66344446 0.6834343 0.49865842 0.8908767 0.6421075 0.8092942 0.6798734 0.596149
0.6809953 0.9646502 0.62765664 0.64059025 0.6327892 0.9896578 0.6467482 0.66397315
0.40426823 0.6409305 0.6802248 1.0573823 0.72569007 1.2332975 0.638258 0.68794334
0.98486847 0.66983116 0.66484785 0.8178845 0.6439004 0.7238371 0.586065 0.88978416
0.8143259 0.7277116 0.6709166 0.68346614 1.0319798 0.74712175 0.5465271 0.69618887
0.74363315 0.39049515 1.2539539 0.8015873 0.70354885 0.965564 0.7042681 0.63691956
0.5950553 1.2286575 0.9046545 0.7367823 0.931128 0.7094624 0.6641225 0.768684
00000000: 57c9 4e3f 91ba 343f 5798 3a3f c4d5 643f
00000010: 7ccd 253f c4ed 493f 9db0 8a3f 8b09 513f
00000020: a892 7e3f baee 293f 3c87 433f 8bd7 223f
00000030: e279 4e3f bb97 3f3f 585c 123f fe4b 1b3f
00000040: f751 313f 2f09 243f 68b4 5c3f 8280 453f
00000050: 4cb5 4e3f f3bc 383f 818f 233f 09f2 253f
00000060: e8c6 2f3f 79d8 523f c0d3 843f 337f 403f
00000070: 2f5e 783f 553d 7e3f c566 243f 2b74 1b3f
00000080: c5cc 303f 9ad4 633f e742 9c3f 0c78 2f3f
00000090: e8b4 243f 94d1 1e3f ad4d 603f 7e3e 173f
000000a0: 4ea7 523f 40fd 3a3f 2b5f 493f 8413 333f
000000b0: 1eda 333f 9630 743f fc81 423f d51f 423f
000000c0: eaf2 363f e52e 553f 0db5 883f c519 233f
000000d0: d226 483f c529 873f d4f1 ed3e f845 363f
000000e0: ae0d 273f fcf5 263f 4847 143f 5d1f 2e3f
000000f0: cbdf 9b3f 7568 553f 64cc 643f fc51 263f
00000100: ae26 133f a2d0 323f 491f 3f3f e1db 4c3f
00000110: 9522 0c3f b944 a33f b4f3 443f 4e48 2c3f
00000120: aa0c 573f ebb0 8c3f a8a9 a63f d88d 2f3f
00000130: ba82 323f e8d7 243f 93e0 343f 6669 883f
00000140: 824e 203f 5e13 513f 42d7 403f 357b 843f
00000150: b6af 923f 7369 633f 6282 3e3f 2b29 3f3f
00000160: 77b5 223f 3cd0 3c3f 525b 203f 4d03 313f
00000170: fb9f 473f 9e1a 8c3f 4b39 323f e0f9 333f
00000180: ca64 343f 590b 493f ec92 303f 1c1e 3a3f
00000190: f868 253f 0847 293f ffb5 1c3f 7f77 893f
000001a0: afdf 373f 246d 513f 0e96 293f 1db5 2e3f
000001b0: dc73 2a3f 77b0 443f dc3d 313f 79e0 2c3f
000001c0: 97d6 2f3f bd29 9f3f 0a7f 893f 507d a73f
000001d0: 7782 423f e98d 273f 7c18 253f eeca 0b3f
000001e0: 2d94 803f 2490 213f da0d 443f 7bc3 463f
000001f0: 8515 833f a4e4 223f c1c5 1c3f 5fb6 573f
00000200: 1856 6e3f e6a4 683f fd72 303f 92fc 413f
00000210: c7be 5a3f 8be2 463f a7e3 2e3f c040 9b3f
00000220: ed53 413f 2d83 953f a42e 6e3f 2e65 293f
00000230: e21b 303f 3124 5e3f 51e1 723f 799f 253f
00000240: 5056 683f 00d6 2f3f f813 3c3f 7063 313f
00000250: ffd4 4b3f 7fd7 4f3f 1f67 983f 2ee5 113f
00000260: cb1c 3e3f 7b71 343f c900 473f 7468 2a3f
00000270: 99ef 393f 3705 363f db9d 063f 6642 173f
00000280: de5a 5d3f a730 373f 0c73 453f 88eb 443f
00000290: 4872 383f 9b37 653f 6c4a 3c3f 0c39 4a3f
000002a0: 6eff 783f b26c 233f 2120 383f f584 523f
000002b0: 2d74 383f edf2 093f 0dc1 893f d79e 0d3f
000002c0: 8233 4f3f 98ba 443f 4500 553f e60d 223f
000002d0: 3458 9a3f 3a49 0d3f d00d 513f 4228 353f
000002e0: 8946 1f3f 8746 9a3f 8c58 2a3f c844 303f
000002f0: 993f 2d3f eb96 3c3f 1388 3d3f 5e35 183f
00000300: 1b7d 8d3f 85a0 403f 61af 363f 7ea4 143f
00000310: 9c90 f33e 0a21 263f 2ed9 3e3f 0aaf 1f3f
00000320: 7fd7 293f 8df5 2e3f 2850 ff3e 7f10 643f
00000330: 2861 243f e82d 4f3f 2f0c 2e3f 399d 183f
00000340: b555 2e3f 51f3 763f 1bae 203f b9fd 233f
00000350: 79fe 213f 375a 7d3f 4a91 253f 25fa 293f
00000360: 3ffc ce3e 0514 243f 3623 2e3f 4e58 873f
00000370: d3c6 393f b1dc 9d3f e064 233f 0e1d 303f
00000380: 5720 7c3f 0e7a 2b3f 7833 2a3f e160 513f
00000390: a8d6 243f 634d 393f 5b08 163f e5c8 633f
000003a0: aa77 503f 4f4b 3a3f 31c1 2b3f a3f7 2e3f
000003b0: ea17 843f 5f43 3f3f 33e9 0b3f 6f39 323f
000003c0: be5e 3e3f fbee c73e 9081 a03f d334 4d3f
000003d0: c71b 343f 342f 773f ea4a 343f 290d 233f
000003e0: 8b55 183f a644 9d3f 7097 673f c49d 3c3f
000003f0: 685e 6e3f 549f 353f ef03 2a3f 7ac8 443f

bn1.bias f4 [256]
0.5964728 0.36275694 -0.27619627 0.19290636 0.3203363 0.12980208 0.09790249 0.056871686
0.19487652 0.13435723 -0.07675007 0.07769603 0.17983519 0.14154047 -0.07852023 0.03174325
0.23440802 -0.1615477 -0.2519562 0.11867973 0.15198132 0.28491303 -0.11515934 -0.07806788
0.2072593 -0.3379457 0.077471405 -0.20693105 0.19593109 -0.11040337 0.0051475554 0.1486903
0.08138917 0.25186664 0.1237657 0.06250795 0.09565625 0.12057128 0.32561716 0.119683295
-0.13662373 -0.25642064 0.20700796 0.29003373 0.10995713 0.21337473 0.088666685 0.12667845
0.26247728 -0.0545003 0.119110204 -0.077613816 0.15586105 0.21505958 0.2702679 0.2007335
0.44095582 0.45988065 0.22063772 0.067720786 0.25496176 0.086113654 -0.18148708 -0.1052946
0.20210224 0.014275873 -0.025553243 -0.050092783 -0.18799819 0.18432102 -0.010758521 0.17622925
0.22744133 -0.26305676 0.20499764 -0.0057710577 0.27006584 0.027008371 0.34468344 0.33170447
0.059232388 0.091134496 -0.257429 0.16592877 0.08114018 0.066843025 -0.36701688 0.3166783
0.34802768 -0.09377782 0.15326688 0.23141398 0.18933944 0.16738656 -0.1993215 0.1486875
0.081777774 0.087681144 -0.08201053 0.23066859 0.060086552 -0.2665665 -0.29044098 0.07883012
0.24956456 0.13980228 -0.016507864 0.041698243 0.12133265 0.22348616 0.21537524 0.032553237
0.048014358 0.08075188 0.19853786 0.20639937 0.19144347 0.027991895 0.19427562 0.020240268
-0.10497649 0.27412242 0.013592186 0.35212982 -0.17437506 0.18343419 -0.06947776 0.16257155
0.14585924 0.06717938 0.1009303 0.3255064 0.014081606 0.43173844 0.3518044 0.182833
0.24403478 0.21184763 -0.104584605 0.35898545 -0.3358855 0.3127989 -0.021020105 -0.026436511
0.21319848 0.02385388 0.17683087 0.25979918 0.28077993 0.2587384 0.08497404 0.08316067
0.012743585 0.2887793 -0.005557793 0.21940269 -0.13232619 0.13016929 -0.12372681 0.26352686
0.2624545 0.07423831 -0.005802321 -0.064976886 0.26829958 0.3373636 0.33899066 0.37808385
0.32747102 0.16010356 -0.031236582 0.22644918 -0.067190394 -0.12884028 0.13993579 -0.24380761
0.06805273 -0.21420947 0.3412114 0.24625756 0.077624574 -0.02498843 -0.05420344 0.35808295
-0.21377231 0.15865643 -0.081058875 0.05925314 0.1592442 -0.25494632 0.33530647 -0.14428365
0.2542077 0.28550708 0.06919258 0.12684582 -0.08781909 0.12705132 -0.0023736106 -0.08774705
0.3112662 0.20171794 -0.018612575 0.25006783 0.29145345 0.11486306 0.6630386 -0.118204854
-0.4437472 -0.039687667 0.0068122265 0.16502087 -0.07267176 0.1257911 0.23601405 0.37125722
0.07511443 -0.095272526 -0.16228712 0.1300522 0.13848446 -0.00082050543 0.22450757 0.36097533
0.185209 0.27699387 0.014960334 0.12856929 0.19543591 -0.3378894 0.042477738 -0.060250126
0.46305418 0.041388877 0.43046656 0.10479703 0.31786436 -0.013319816 0.09209268 -0.029117845
-0.10056791 -0.12444176 0.12743868 0.42345005 0.12567453 0.023790583 -0.22419904 -0.3449039
0.13438053 0.3211534 0.17468525 0.25490335 -0.15899447 0.08294204 0.4686277 0.19766723
00000000: 71b2 183f 47bb b93e 9969 8dbe 3f89 453e
00000010: 1f03 a43e d6ea 043e 1a81 c83d 49f2 683d
00000020: b68d 473e f194 093e 242f 9dbd 191f 9f3d
00000030: b726 383e fcef 103e 37cf a0bd 3605 023d
00000040: a808 703e c36c 25be 6700 81be 5c0e f33d
00000050: fea0 1b3e 1fe0 913e a9d8 ebbd 0de2 9fbd
00000060: c83b 543e 3807 adbe 54a9 9e3d bce5 53be
00000070: 29a2 483e 291b e2bd d3ac a83b 4542 183e
00000080: 5daf a63d aaf4 803e df78 fd3d 2b04 803d
00000090: 6de7 c33d 13ee f63d 4bb7 a63e 841c f53d
000000a0: 17e7 0bbe 9149 83be e5f9 533e 4d7f 943e
000000b0: 3431 e13d e87e 5a3e e196 b53d ffb7 013e
000000c0: 6c63 863e b53b 5fbd 0df0 f33d fef3 9ebd
000000d0: 0a9a 1f3e 9438 5c3e 8e60 8a3e 158d 4d3e
000000e0: f6c4 e13e 7a75 eb3e dbee 613e 32b1 8a3d
000000f0: 598a 823e 5b5c b03d c0d7 39be b2a4 d7bd
00000100: e4f3 4e3e 5ae5 693c 0955 d1bc 172e 4dbd
00000110: 9982 40be a6be 3c3e 8244 30bc 7175 343e
00000120: 61e6 683e 60af 86be e7ea 513e 241b bdbb
00000130: 1246 8a3e a940 dd3c 597a b03e 2bd5 a93e
00000140: a99d 723d b9a4 ba3d bccd 83be 3be9 293e
00000150: d32c a63d ffe4 883d a3e9 bbbe a823 a23e
00000160: af30 b23e 960e c0bd fef1 1c3e c9f7 6c3e
00000170: 33e2 413e 6267 2b3e ef1a 4cbe 8941 183e
00000180: 1b7b a73d 2c92 b33d 23f5 a7bd 6334 6c3e
00000190: 511d 763d 677b 88be aeb4 94be b071 a13d
000001a0: da8d 7f3e 5428 0f3e 803b 87bc c7cb 2a3d
000001b0: 417d f83d 8ed9 643e 548b 5c3e 8b56 053d
000001c0: b4aa 443d 3e61 a53d 824d 4b3e 5b5a 533e
000001d0: c209 443e 424f e53c 30f0 463e ebce a53c
000001e0: eafd d6bd c659 8c3e c3b1 5e3c 5c4a b43e
000001f0: 608f 32be 2cd6 3b3e 5b4a 8ebd 2879 263e
00000200: 205c 153e 5895 893d 8cb4 ce3d c6a8 a63e
00000210: 89b6 663c d20c dd3e b51f b43e 9338 3b3e
00000220: 41e4 793e 96ee 583e 7430 d6bd f1cc b73e
00000230: 2ff9 abbe 2d27 a03e 5b32 acbc 6291 d8bc
00000240: b450 5a3e 3669 c33c 2713 353e 6604 853e
00000250: 63c2 8f3e 5c79 843e df06 ae3d 2450 aa3d
00000260: 78ca 503c e1da 933e 261e b6bb 19ab 603e
00000270: 8480 07be 194b 053e 7b64 fdbd feec 863e
00000280: 7060 863e 410a 983d 6521 bebb 9a12 85bd
00000290: 905e 893e ecba ac3e 2f90 ad3e 3594 c13e
000002a0: 48aa a73e 30f2 233e dce3 ffbc 4be2 673e
000002b0: 1e9b 89bd b5ee 03be 544b 0f3e b4a8 79be
000002c0: 3b5f 8b3d ba59 5bbe 43b3 ae3e f12a 7c3e
000002d0: a2f9 9e3d 89b4 ccbc 6d04 5ebd a656 b73e
000002e0: 21e7 5abe d576 223e 3202 a6bd 6cb3 723d
000002f0: e910 233e 5388 82be 4aad ab3e 18bf 13be
00000300: 8327 823e fc2d 923e d7b4 8d3d dfe3 013e
00000310: 7fda b3bd be19 023e 948e 1bbb bab4 b3bd
00000320: 495e 9f3e 268f 4e3e 6679 98bc e408 803e
00000330: 6339 953e 533d eb3d e6bc 293f 6315 f2bd
00000340: d532 e3be 898f 22bd 1939 df3b 3bfb 283e
00000350: efd4 94bd 62cf 003e abad 713e 6d15 be3e
00000360: 98d5 993d 3e1e c3bd 982e 26be 672c 053e
00000370: dfce 0d3e 3017 57ba 50e5 653e c2d1 b83e
00000380: 6ea7 3d3e 24d2 8d3e 301c 753c aba7 033e
00000390: 5a20 483e d7ff acbe 23fd 2d3d d6c8 76bd
000003a0: 7015 ed3e 6287 293d 1d66 dc3e d39f d63d
000003b0: 1ebf a23e 5c3b 5abc 169b bc3d 8c88 eebc
000003c0: 8cf6 cdbd 52db febd 497f 023e 72ce d83e
000003d0: d3b0 003e 78e4 c23c 6f94 65be 3e97 b0be
000003e0: 0d9b 093e 386e a43e b1e0 323e b182 823e
000003f0: 72cf 22be 84dd a93d f8ef ef3e 4769 4a3e

bn1.running_mean f4 [256]
1.4494243 1.6475288 0.987248 0.12601067 0.62487453 2.265868 0.32426262 0.7483851
0.24370706 1.7029557 0.67809725 1.2761995 0.8775792 1.4421161 2.1261666 1.0557185
2.3160665 1.0633848 6e-45 1.0129265 0.40761802 3.2416399 0.7770308 2.387386
0.74468493 0.19912861 2.8210392 0.100820504 2.0652723 0.66351974 1.3446181 4.051302
1.4736085 0.4201254 2.7112336 0.7180727 2.0627093 1.5037993 6e-45 0.1428938
2.8491886 0.9348375 0.3348033 0.39155424 1.5558673 2.8039865 0.683838 0.49906462
0.37643206 0.24580799 2.3293233 1.4863124 1.6965513 0.48410973 0.24794213 0.7940635
1.5187676 0.4240642 2.2844129 1.7958513 0.18974906 0.5829577 0.5122688 1.0102971
2.7266114 1.5212687 2.5925968 0.489671 0.9218706 0.09443411 0.14975698 1.2224219
0.40703347 0.84288675 0.26455986 2.0480645 1.3590711 0.5555604 1.2397292 2.6475675
0.978438 0.3555033 2.9818664 0.115338914 4.1524057 0.045389075 0.66353863 0.7409858
1.161182 1.5119158 0.6822003 1.7213352 1.2409775 0.116868585 0.52087015 2.4712722
1.2438889 0.1493098 0.45740402 0.055885307 2.0048532 2.2311592 1.7022569 4.8722196
1.8506113 1.3793021 2.6791337 1.082139 1.9277318 0.81091195 0.5987164 1.2430165
2.0946298 0.34464788 0.25223148 0.043268435 3.290071 0.40541685 0.3492299 1.064355
2.5906796 0.10754921 0.36343256 0.23496771 2.3289635 0.56267273 3.3363385 0.25929353
6e-45 0.59261495 0.57018065 1.1614982 1.4850371 0.72762716 1.1811124 6.1201024
1.4434474 0.085652575 1.0762011 0.7438995 1.8065203 0.31616545 0.13811663 1.7592137
0.3445873 0.5722044 1.114127 0.16790837 0.6549603 0.21175212 0.16018006 2.8574138
4.6152887 0.6806304 0.96187556 1.8395419 1.2685031 5.8500695 0.26673737 1.1460859
0.3454009 0.016322069 4.306086 0.80965215 2.2606628 0.3377668 0.7355372 3.7181249
6e-45 0.308084 2.908263 6e-45 0.51167893 0.2383278 0.1884264 1.3139715
1.020572 0.3036225 0.20043334 1.4018246 0.6210165 3.4959412 1.2946974 1.3071473
1.7589418 0.23705411 1.259841 1.3275263 1.2350125 2.1430151 0.1852343 2.3200192
4.804212 3.0745347 0.6372244 1.5564976 3.1965575 0.4191149 0.9689027 2.8409543
1.5096673 0.41132283 0.69127196 1.8731487 1.4934713 0.5116372 1.4976733 0.8596737
1.6176784 1.1026585 0.17496683 2.4147744 2.3124976 0.7973329 1.2453687 1.2070564
0.023979051 1.6823589 2.396361 0.22673848 1.363265 1.1787379 2.5566869 1.9116193
0.52820563 1.0219775 2.7222242 0.005461955 2.2188675 1.3306375 2.7440426 2.3129392
0.59576064 0.39204013 0.20317805 0.25259086 0.024174673 2.3268032 1.6470361 1.1997497
2.6278183 0.030704038 0.31061232 1.2234828 2.7868621 0.35225666 5.4602866 2.8478303
0.22657184 0.17915624 6e-45 0.9520964 1.7022486 1.6452466 0.08264646 0.3954969
00000000: bc86 b93f 39e2 d23f 49bc 7c3f f108 013e
00000010: c7f7 1f3f fb03 1140 c005 a63e 2a96 3f3f
00000020: 588e 793e 74fa d93f c897 2d3f 815a a33f
00000030: 08a9 603f 4397 b83f 1d13 0840 c921 873f
00000040: 6f3a 1440 fe1c 883f 0400 0000 93a7 813f
00000050: 4fb3 d03e 0777 4f40 7eeb 463f efca 1840
00000060: aca3 3e3f 5fe8 4b3e e88b 3440 fb7a ce3d
00000070: 6c2d 0440 6edc 293f 721c ac3f 44a4 8140
00000080: 349f bc3f ad1a d73e da84 2d40 9dd3 373f
00000090: 6e03 0440 7f7c c03f 0400 0000 c152 123e
000000a0: 1b59 3640 8351 6f3f 576b ab3e cc79 c83e
000000b0: a926 c73f 8474 3340 0210 2f3f 6685 ff3e
000000c0: b4bb c03e 17b5 7b3e a213 1540 7c3f be3f
000000d0: 9828 d93f 3bdd f73e 8be4 7d3e bf47 4b3f
000000e0: fa66 c23f f11e d93e d233 1240 75de e53f
000000f0: 944d 423e b73c 153f 0c24 033f 6a51 813f
00000100: cd80 2e40 efb8 c23f 1bed 2540 28b6 fa3e
00000110: b6ff 6b3f ac66 c13d e559 193e 5278 9c3f
00000120: b166 d03e 6dc7 573f 6474 873e 7d13 0340
00000130: 0bf6 ad3f 3539 0e3f 72af 9e3f bf71 2940
00000140: ea7a 7a3f 8704 b63e e6d6 3e40 cf36 ec3d
00000150: 82e0 8440 e5e9 393d abdd 293f 3fb1 3d3f
00000160: 9da1 943f 7586 c13f aea4 2e3f b654 dc3f
00000170: 5ad8 9e3f cc58 ef3d bf57 053f 5329 1e40
00000180: c037 9f3f abe4 183e dc30 ea3e fee7 643d
00000190: 844f 0040 50cb 0e40 8ee3 d93f 39e9 9b40
000001a0: d5e0 ec3f f98c b03f ed76 2b40 8883 8a3f
000001b0: eabf f63f ed97 4f3f 7a45 193f 2a1b 9f3f
000001c0: 6a0e 0640 b075 b03e 7c24 813e 3e3a 313d
000001d0: 8690 5240 cc92 cf3e 43ce b23e c93c 883f
000001e0: b2cd 2540 c342 dc3d d513 ba3e 609b 703e
000001f0: bd0d 1540 520b 103f 9286 5540 1fc2 843e
00000200: 0400 0000 9db5 173f 5cf7 113f f9ab 943f
00000210: b215 be3f c645 3a3f b12e 973f e1d7 c340
00000220: e2c2 b83f 9e6a af3d f5c0 893f 3370 3e3f
00000230: 0f3c e73f 70e0 a13e 726e 0d3e ea2d e13f
00000240: bf6d b03e fd7b 123f b79b 8e3f 2cf0 2b3e
00000250: 7aab 273f 8cd5 583e 3e06 243e dedf 3640
00000260: 72b0 9340 cb3d 2e3f 7a3d 763f 1c76 eb3f
00000270: 4f5e a23f c533 bb40 cd91 883e f1b2 923f
00000280: 63d8 b03e dcb5 853c 75cb 8940 5d45 4f3f
00000290: b3ae 1040 c5ef ac3e 2a4c 3c3f c2f5 6d40
000002a0: 0400 0000 30bd 9d3e fb20 3a40 0400 0000
000002b0: 64fd 023f 340c 743e daf2 403e 3830 a83f
000002c0: 1aa2 823f 6974 9b3e 663e 4d3e fd6e b33f
000002d0: f0fa 1e3f 80bd 5f40 a5b8 a53f 9a50 a73f
000002e0: 0125 e13f 50be 723e 7842 a13f 62ec a93f
000002f0: e414 9e3f 2927 0940 0fae 3d3e 327b 1440
00000300: 1bbc 9940 2dc5 4440 2321 233f 503b c73f
00000310: 6694 4c40 3a96 d63e 020a 783f 32d2 3540
00000320: c73c c13f e898 d23e 33f7 303f 56c3 ef3f
00000330: 112a bf3f a8fa 023f c2b3 bf3f 9313 5c3f
00000340: 1610 cf3f ea23 8d3f 812a 333e aa8b 1a40
00000350: f6ff 1340 021e 4c3f 3e68 9f3f d380 9a3f
00000360: b76f c43c 8957 d73f fb5d 1940 222e 683e
00000370: 787f ae3f e2e0 963f c2a0 2340 f1af f43f
00000380: 7c38 073f 29d0 823f ec38 2e40 33fa b23b
00000390: ed01 0e40 5452 aa3f 659e 2f40 3207 1440
000003a0: c583 183f 7cb9 c83e e80d 503e 9753 813e
000003b0: f709 c63c 58ea 1440 14d2 d23f 6691 993f
000003c0: 2d2e 2840 0987 fb3c 9408 9f3e 169b 9c3f
000003d0: f35b 3240 fc5a b43e abba ae40 da42 3640
000003e0: 7302 683e bc74 373e 0400 0000 97bc 733f
000003f0: 48e3 d93f 7197 d23f 8c42 a93d 927e ca3e

bn1.running_var f4 [256]
4.1938043 11.421807 5.50368 0.18449228 2.1463232 4.2157035 0.18886657 1.3067129
0.17230749 8.295861 1.2342464 5.0978355 2.4311972 4.8090067 13.415167 4.159235
15.17014 3.501948 6e-45 1.6227355 0.6449447 7.8776765 2.3832405 19.441105
2.5978377 0.45185408 10.881019 0.13853537 7.269357 0.39143282 10.222241 9.625322
3.3963099 1.5323946 12.742871 2.7381902 6.2197666 6.0763564 6e-45 0.26300982
3.663085 3.3817527 0.8932116 0.694147 6.1605 6.5328865 1.0940676 0.8943681
1.1043121 0.58919096 9.444051 3.9947584 11.681298 0.7059102 0.8342764 2.4363866
4.0595903 1.0946809 11.479635 8.543196 0.04460186 2.1182632 0.9793402 3.6023197
23.293118 7.0049996 5.264806 1.157851 3.5063403 0.037017733 0.31700492 6.032326
0.93168104 1.5923193 0.50149447 4.2018476 8.137126 2.196351 6.4416075 10.779964
3.0303948 0.7580747 15.843677 0.25369036 28.193363 0.076764554 2.8089976 3.5283284
4.0424647 9.709238 3.0268629 10.331252 2.469242 0.11005299 1.7058715 7.5741606
4.7428412 0.18499406 1.0809457 0.13402581 4.6621504 13.001237 12.414926 35.56137
10.761741 1.9605309 4.5650063 4.163743 3.5435858 2.2592142 1.2108021 7.131009
13.612618 0.2912222 0.38489106 0.064068645 6.514343 1.4059207 0.765908 3.434712
9.622702 0.2076387 1.0328469 0.7988929 9.655263 1.6557851 12.856199 0.5691759
6e-45 1.2735192 1.6876305 6.5645137 3.7276554 1.839056 4.703973 51.89496
3.8961809 0.12748563 3.9461 1.2816317 3.1325634 0.6519241 0.16381457 6.3805137
0.50050557 2.3592622 1.5314353 0.39354837 2.5168514 0.3484282 0.21410981 6.048181
3.3671148 2.3959095 2.991155 5.469122 4.655034 3.6164823 0.7402202 3.3264115
1.5257082 0.019002402 4.98232 1.9863502 12.796367 1.2398857 3.8748865 7.2141137
6e-45 0.65735924 22.705523 6e-45 1.7428008 0.6444134 0.19602066 4.395926
1.0727755 0.32679656 0.51948476 3.0512655 1.2305411 9.32674 3.9775314 3.543358
13.273761 0.49842766 3.3960311 4.8625045 3.4097369 7.2833643 0.36277065 9.28323
38.413853 5.732413 1.2881062 3.881074 7.993757 1.0804892 2.2017882 8.315872
4.6201673 1.481041 1.188492 5.9845767 5.835475 0.97900563 5.297346 3.6952224
2.7273417 1.8353889 0.241936 9.035104 3.4425316 1.1063175 3.5250266 3.2404318
0.03406113 7.7660203 9.4819765 0.08628567 6.700248 0.26226184 6.6245546 15.97859
1.3813279 5.682875 7.9481626 0.0029122366 7.632815 9.820845 17.634356 7.2677855
0.9048841 1.2133605 0.48857424 0.4908895 0.03380224 5.7997165 7.7598996 7.3018374
17.106087 0.060319588 0.19811109 1.8149247 4.847743 0.22857858 7.8273773 8.515243
0.48452854 0.44869405 6e-45 4.079577 5.3485837 4.734035 0.14525044 0.6211426
00000000: a533 8640 b9bf 3641 261e b040 8beb 3c3e
00000010: 5c5d 0940 0be7 8640 3d66 413e 5e42 a73f
00000020: 6071 303e d9bb 0441 c9fb 9d3f 7821 a340
00000030: bc98 1b40 62e3 9940 86a4 5641 7418 8540
00000040: e5b8 7241 eb1f 6040 0400 0000 ccb5 cf3f
00000050: 191b 253f ed15 fc40 0387 1840 6287 9b41
00000060: f942 2640 6b59 e73e a718 2e41 37dc 0d3e
00000070: 939e e840 e269 c83e 4d8e 2341 5201 1a41
00000080: 245d 5940 8225 c43f cde2 4b41 823e 2f40
00000090: 5408 c740 8371 c240 0400 0000 39a9 863e
000000a0: fc6f 6a40 a36e 5840 84a9 643f 9eb3 313f
000000b0: d122 c540 680d d140 680a 8c3f 4ff5 643f
000000c0: 195a 8d3f 38d5 163f d51a 1741 1faa 7f40
000000d0: 99e6 3a41 88b6 343f 2393 553f c2ed 1b40
000000e0: 2ae8 8140 811e 8c3f 96ac 3741 eeb0 0841
000000f0: 71b0 363d a091 0740 0ab6 7a3f 688c 6640
00000100: 4e58 ba41 f528 e040 4a79 a840 7634 943f
00000110: e167 6040 e89f 173d 784e a23e d108 c140
00000120: a682 6e3f 1ed1 cb3f f161 003f 8975 8640
00000130: ab31 0241 0491 0c40 a621 ce40 bc7a 2c41
00000140: fdf1 4140 2f11 423f b37f 7d41 b4e3 813e
00000150: 028c e141 bc36 9d3d 9ec6 3340 22d0 6140
00000160: df5b 8140 0a59 1b41 1fb8 4140 cf4c 2541
00000170: 1008 1e40 7663 e13d ff59 da3f 865f f240
00000180: 5bc5 9740 156f 3d3e 6e5c 8a3f 103e 093e
00000190: 5630 9540 1105 5041 89a3 4641 d83e 0e42
000001a0: 1730 2c41 adf2 fa3f 8814 9240 623d 8540
000001b0: 1cca 6240 f796 1040 90fb 9a3f 3a31 e440
000001c0: 49cd 5941 141b 953e 7110 c53e 6c36 833d
000001d0: 7f75 d040 36f5 b33f 8c12 443f 52d2 5b40
000001e0: 96f6 1941 3d9f 543e 5434 843f 3f84 4c3f
000001f0: f57b 1a41 c4f0 d33f feb2 4d41 83b5 113f
00000200: 0400 0000 ad02 a33f 4704 d83f 7f10 d240
00000210: e891 6e40 3066 eb3f f286 9640 7094 4f42
00000220: 075b 7940 988b 023e e78c 7c40 820c a43f
00000230: eb7b 4840 7fe4 263f 02bf 273e 2b2d cc40
00000240: 2221 003f 27fe 1640 1206 c43f 2c7f c93e
00000250: 1814 2140 2e65 b23e 9a3f 5b3e b38a c140
00000260: cf7e 5740 9556 1940 156f 3f40 0c03 af40
00000270: 0af6 9440 7274 6740 127f 3d3f ede3 5440
00000280: 684a c33f edaa 9b3c 2a6f 9f40 b940 fe3f
00000290: ebbd 4c41 93b4 9e3f 24fe 7740 05da e640
000002a0: 0400 0000 b248 283f e9a4 b541 0400 0000
000002b0: 1914 df3f 47f8 243f a4b9 483e 6dab 8c40
000002c0: b550 893f e151 a73e f4fc 043f ef47 4340
000002d0: 5f82 9d3f 543a 1541 e08f 7e40 61c6 6240
000002e0: 5361 5441 e931 ff3e 9358 5940 a399 9b40
000002f0: 2139 5a40 5211 e940 13bd b93e 1c88 1441
00000300: c9a7 1942 ed6f b740 aae0 a43f 8463 7840
00000310: dbcc ff40 784d 8a3f 19ea 0c40 d00d 0541
00000320: 69d8 9340 c092 bd3f 8120 983f a781 bf40
00000330: 36bc ba40 1da0 7a3f dc83 a940 867e 6c40
00000340: c48c 2e40 06ee ea3f 12be 773e c98f 1041
00000350: 7052 5c40 d09b 8d3f 099a 6140 3c63 4f40
00000360: af83 0b3d 3d83 f840 2db6 1741 8bb6 b03d
00000370: 6e68 d640 2f47 863e 5afc d340 4ea8 7f41
00000380: 5acf b03f 1dda b540 5957 fe40 39db 3e3b
00000390: 0540 f440 2e22 1d41 2913 8d41 b391 e840
000003a0: 7ca6 673f 664f 9b3f 6726 fa3e de55 fb3e
000003b0: 3874 0a3d 4797 b940 1951 f840 a7a8 e940
000003c0: 44d9 8841 ac11 773d a2dd 4a3e 744f e83f
000003d0: b620 9b40 8110 6a3e e079 fa40 6f3e 0841
000003e0: 2014 f83e 3abb e53e 0400 0000 e58b 8240
000003f0: 9927 ab40 377d 9740 88bc 143e 3403 1f3f

fc2.weight f4 [128, 258]
-0.1920961 0.03584841 0.06248482 -0.050309326 -0.115342595 -0.01958163 -0.012363601 0.11976356
-0.052230466 -0.0067297034 -0.006326949 0.072419204 0.03319065 -0.06384574 -0.075092174 -0.06968371
-0.018854631 0.10359758 0.07146208 -0.11314333 -0.0073653166 0.025632616 0.024526842 -0.013178555
0.039949093 0.16077639 -0.027899886 0.07516556 -0.11891457 -0.09531658 -0.05974257 0.095500335
-0.08722752 -0.007414707 -0.10464583 -0.053965673 -0.055269267 -0.019775392 -0.22863577 -0.09802905
-0.08778218 0.02591772 -0.030871835 -0.018660747 -0.074921 0.07789893 0.050289795 -0.039146475
-0.08441497 -0.096062645 0.018472604 0.007754846 0.019282997 -0.0979225 -0.067270175 -0.14836478
-0.10222234 -0.029692696 0.04776469 0.04665103 -0.032429248 0.14110753 0.02404946 0.09217302
-0.10967126 -0.03347033 0.108175874 0.028053071 0.011108064 0.001330899 0.017367885 -0.030433396
-0.18580993 0.11789314 0.1551788 0.14249064 -0.13555896 0.07353628 -0.1181352 -0.060526296
-2.137265e-05 -0.034094337 -0.0053781974 0.06840764 -0.15093447 -0.05981003 0.10611179 -0.03330719
-0.028374398 -0.050723106 -0.003088888 0.08122358 -0.03539522 0.057065733 0.06508721 -0.064219534
-0.05877659 0.086995445 -0.054783087 -0.049999487 0.061323754 0.02321288 0.097758025 -0.13717826
-0.01763687 -0.02306112 -0.022716781 -0.020509062 -0.035289943 -0.027425218 -0.19409202 0.10992537
-0.024344822 0.053881876 -0.098088436 0.034615353 -0.0027647535 0.07645003 0.094147906 -0.048782423
-0.09523807 -0.18869425 -0.12019601 -0.07612411 0.13717267 -0.036989383 -0.016368596 0.06808385
-0.026112635 0.024699267 -0.089018814 -0.055723026 0.025346378 -0.12934597 -0.065912426 -0.11688754
-0.07209141 0.039317172 -0.033495463 0.036706492 -0.07082895 -0.14269659 0.00947291 -0.07843761
-0.049212307 -0.0071485587 -0.047781423 -0.092412606 -0.12879184 0.054398846 0.0040389565 0.08174568
0.048481032 0.012922812 -0.05044882 -0.040929742 0.100106575 0.028491786 0.115700684 -0.022138463
-0.07355291 0.05744049 -0.03800441 -0.07649153 -0.079012156 -0.045329858 -0.046011563 -0.02647488
-0.10670365 -0.07258464 -0.040863235 -0.08393497 0.037451454 0.0080711525 -0.054699842 -0.011323145
0.035597384 0.084303245 -0.13036159 -0.032610435 0.07226733 0.06151734 0.042856716 0.005299877
0.014750755 0.03287441 0.055506658 -0.045850966 -0.040877096 0.009867136 -0.14035922 0.06533204
-0.19751173 -0.061422907 0.05065846 0.0849852 0.12861982 -0.017731851 0.07914741 -0.023727855
0.0011167186 -0.03795308 -0.051998552 -0.10214524 -0.06432062 -0.040933255 -0.048459075 0.009551803
-0.0041186437 -0.08856971 0.097727425 -0.1219121 -0.01377906 0.07747111 -0.036020126 -0.07903523
-0.018235005 0.036636844 0.056142002 -0.006751523 -0.045975234 -0.004707706 -0.021490937 0.022516005
0.09965731 -0.029832004 0.04164336 -0.059425402 -0.0030161191 0.059901215 0.039899852 -0.016712602
0.021125847 0.03232742 -0.13924254 0.05778078 -0.029582925 -0.011888694 -0.041870546 -0.0972745
0.018692933 -0.07405992 -0.107220255 -0.09303837 0.040519238 0.0066456744 0.06236306 0.16595997
-0.109465845 -0.10857241 -0.10749261 0.02640997 0.06800507 0.023841843 -0.018970348 0.024768861
00000000: d7b4 44be c8d5 123d 15f0 7f3d 2711 4ebd
00000010: bd38 ecbd a869 a0bc b390 4abc 9946 f53d
00000020: 9def 55bd d884 dcbb 4c52 cfbb 8550 943d
00000030: ebf2 073d 8ec1 82bd edc9 99bd 55b6 8ebd
00000040: 0775 9abc f82a d43d b65a 923d b1b7 e7bd
00000050: c158 f1bb 7efb d13c 84ec c83c deea 57bc
00000060: a9a1 233d 91a2 243e 4d8e e4bc 67f0 993d
00000070: 7b89 f3bd 5735 c3bd a0b4 74bd ae95 c33d
00000080: 58a4 b2bd 12f7 f2bb 8e50 d6bd 1c0b 5dbd
00000090: 0762 62bd 0100 a2bc 7f1f 6abe 74c3 c8bd
000000a0: 25c7 b3bd 6651 d43c eee6 fcbc 6cde 98bc
000000b0: 2e70 99bd 7989 9f3d acfc 4d3d 0e58 20bd
000000c0: c1e1 acbd 7ebc c4bd dc53 973c 5d1c fe3b
000000d0: 60f7 9d3c 978b c8bd f2c4 89bd f0ec 17be
000000e0: f259 d1bd 193e f3bc e8a4 433d 2715 3f3d
000000f0: 88d4 04bd 7e7e 103e 6003 c53c 35c5 bc3d
00000100: 539b e0bd 2f18 09bd 508b dd3d 8ecf e53c
00000110: 99fe 353c 8f71 ae3a 1847 8e3c 754f f9bc
00000120: f544 3ebe f571 f13d 31e7 1e3e 11e9 113e
00000130: f8cf 0abe 309a 963d def0 f1bd 6cea 77bd
00000140: 6b49 b3b7 81a6 0bbd 973b b0bb 4e19 8c3d
00000150: 918e 1abe 5dfb 74bd 2351 d93d 1f6d 08bd
00000160: 6d71 e8bc 08c3 4fbd f16e 4abb 8c58 a63d
00000170: 94fa 10bd c2bd 693d 714c 853d 8885 83bd
00000180: b9bf 70bd ab2a b23d 3b64 60bd 43cc 4cbd
00000190: 9e2e 7b3d f028 be3c 5c35 c83d 7578 0cbe
000001a0: 327b 90bc adea bcbc 8b18 babc 9f02 a8bc
000001b0: 308c 10bd daaa e0bc 0fc0 46be 8d20 e13d
000001c0: cb6e c7bc 3eb3 5c3d 97e2 c8bd d4c8 0d3d
000001d0: de30 35bb d591 9c3d 9ed0 c03d 14d0 47bd
000001e0: 2d0c c3bd 1139 41be 5329 f6bd f5e6 9bbd
000001f0: fe76 0c3e 2e82 17bd 6f17 86bc 8c6f 8b3d
00000200: 2aea d5bc 1e56 ca3c 7f4f b6bd d43d 64bd
00000210: 35a3 cf3c 4573 04be 18fd 86bd bc62 efbd
00000220: a9a4 93bd 0b0b 213d 8a32 09bd 8c59 163d
00000230: c50e 91bd 0e1f 12be 4434 1b3c e6a3 a0bd
00000240: d892 49bd 753e eabb 74b6 43bd d242 bdbd
00000250: 02e2 03be 53d1 5e3d 3959 843b 476a a73d
00000260: 0c94 463d 34ba 533c 6ca3 4ebd f2a5 27bd
00000270: ad04 cd3d 9b67 e93c 7bf4 ec3d b95b b5bc
00000280: e8a2 96bd b846 6b3d 83aa 1bbd 97a7 9cbd
00000290: 20d1 a1bd cdab 39bd 9f76 3cbd d9e1 d8bc
000002a0: 7187 dabd 41a7 94bd 3560 27bd 19e6 abbd
000002b0: b266 193d de3c 043c f10c 60bd b684 39bc
000002c0: 90ce 113d 2ea7 ac3d 827d 05be 8592 05bd
000002d0: e500 943d 9bf9 7b3d 868a 2f3d 97aa ad3b
000002e0: 27ad 713c 51a7 063d f35a 633d 39ce 3bbd
000002f0: be6e 27bd c5a9 213c 54ba 0fbe cecc 853d
00000300: 8440 4abe 9696 7bbd 3f7f 4f3d b80c ae3d
00000310: eab4 033e 6342 91bc 0a18 a23d eb60 c2bc
00000320: dc5e 923a b074 1bbd 6ffc 54bd 8631 d1bd
00000330: 87ba 83bd a1a9 27bd 067d 46bd 2a7f 1c3c
00000340: b0f5 86bb 0964 b5bd 5125 c83d 0dad f9bd
00000350: 91c1 61bc 2ca9 9e3d d789 13bd 39dd a1bd
00000360: 9461 95bc 8410 163d 28f5 653d e13b ddbb
00000370: 8750 3cbd 1a43 9abb c30d b0bc 7c73 b83c
00000380: 2219 cc3d 3f62 f4bc 3a92 2a3d 0d68 73bd
00000390: 15aa 45bb fa5a 753d 076e 233d dee8 88bc
000003a0: 1d10 ad3c c269 043d 9995 0ebe 8aab 6c3d
000003b0: e457 f2bc ccc8 42bc 7380 2bbd da37 c7bd
000003c0: ec21 993c baac 97bd 4b96 dbbd e78a bebd
000003d0: 80f7 253d f5c3 d93b 6870 7f3d 69f1 293e
000003e0: a12f e0bd 365b debd 1625 dcbd b959 d83c
000003f0: 3e46 8b3d f84f c33c b467 9bbc 11e8 ca3c

fc2.bias f4 [128]
-0.22806104 -0.18622309 -0.19873774 -0.15110427 -0.112017214 -0.09355415 -0.21123607 -0.21859324
-0.24328113 -0.24589182 -0.21965578 -0.16783293 -0.3375977 -0.29067123 -0.23030014 -0.2924633
-0.23915792 -0.12350106 -0.26664585 -0.1664918 -0.24332534 -0.195068 -0.2507724 -0.09764996
-0.1605101 -0.20231992 -0.06669345 -0.08434505 -0.037198987 -0.27658963 -0.26849115 -0.1303087
-0.15170968 -0.1850385 -0.12954015 -0.19016646 -0.15169327 -0.12913871 -0.22515759 -0.057506982
-0.063723125 -0.15989023 -0.10778897 -0.2456078 -0.08954511 -0.24074577 -0.117610045 -0.25298905
-0.15772225 -0.26070946 -0.17638858 -0.27434182 -0.13068666 -0.06586521 -0.1959395 -0.15960845
-0.28345838 -0.18304667 -0.27235952 -0.18437655 -0.11058314 -0.14653966 -0.18083999 -0.19360986
-0.0425194 -0.06550755 -0.30023563 -0.16480948 -0.18089926 -0.16795872 -0.2349495 -0.061885558
-0.24501073 -0.24536285 -0.17641774 -0.18625364 -0.1913326 -0.21501692 -0.079882696 -0.21153264
-0.15553883 -0.11118516 -0.24684818 -0.29302546 -0.2046263 -0.3137369 -0.19383736 -0.105820954
-0.16560498 -0.24208744 -0.21424052 -0.15970431 -0.18297032 -0.16669239 -0.08237428 -0.13847913
-0.057943217 -0.18960279 -0.18446709 -0.1393845 -0.11805569 -0.215324 -0.16809885 -0.22667505
-0.10365338 -0.053968202 -0.27863598 -0.24690104 -0.25399983 -0.2242971 -0.18409336 -0.09247156
-0.123120055 -0.06764606 -0.3601138 -0.2402012 -0.2150233 -0.29233533 -0.25423706 -0.1335522
-0.13367629 -0.081232056 -0.11706909 -0.11338212 -0.19884053 -0.28140542 -0.22167356 -0.18544044
00000000: d588 69be 44b1 3ebe e881 4bbe 14bb 1abe
00000010: 4869 e5bd 5199 bfbd 454e 58be e8d6 5fbe
00000020: b01e 79be 11cb 7bbe 72ed 60be 65dc 2bbe
00000030: 9bd9 acbe dcd2 94be cdd3 6bbe c0bd 95be
00000040: d0e5 74be 20ee fcbd ce85 88be d47c 2abe
00000050: 472a 79be e8bf 47be 3d65 80be b4fc c7bd
00000060: c25c 24be f42c 4fbe 9396 88bd 19bd acbd
00000070: f75d 18bd 289d 8dbe ac77 89be a56f 05be
00000080: c859 1bbe bc7a 3dbe 2ca6 04be ffba 42be
00000090: 7b55 1bbe f03c 04be b68f 66be 718c 6bbd
000000a0: 4581 82bd 44ba 23be 77c0 dcbd 9c80 7bbe
000000b0: 6d63 b7bd 0f86 76be 89dd f0bd c887 81be
000000c0: f181 21be b67b 85be 359f 34be 8876 8cbe
000000d0: b9d2 05be 57e4 86bd 5da4 48be 6670 23be
000000e0: 7521 91be 9670 3bbe b572 8bbe 35cd 3cbe
000000f0: 6a79 e2bd 7e0e 16be 1e2e 39be aa41 46be
00000100: d328 2ebd d328 86bd 7cb8 99be d1c3 28be
00000110: a83d 39be 5ffd 2bbe 9a96 70be b67b 7dbd
00000120: 18e4 7abe 6640 7bbe daa6 34be 46b9 3ebe
00000130: b1ec 43be 652d 5cbe 8a99 a3bd 039c 58be
00000140: 9245 1fbe 0cb5 e3bd c5c5 7cbe 6f07 96be
00000150: 8f89 51be 1fa2 a0be 4d7d 46be a8b8 d8bd
00000160: 5a94 29be c5e5 77be de61 5bbe 8789 23be
00000170: 925c 3bbe 69b1 2abe d9b3 a8bd 79cd 0dbe
00000180: de55 6dbd 3c27 42be f1e4 3cbe cfba 0ebe
00000190: 2ec7 f1bd e57d 5cbe 1b22 2cbe 811d 68be
000001a0: 3948 d4bd c30d 5dbd 60a9 8ebe a0d3 7cbe
000001b0: 440c 82be 24ae 65be f882 3cbe bb61 bdbd
000001c0: 5e26 fcbd 048a 8abd d660 b8be 4ef7 75be
000001d0: 112f 5cbe faac 95be 5c2b 82be e8c1 08be
000001e0: 70e2 08be fe5c a6bd ebc1 efbd e334 e8bd
000001f0: da9c 4bbe 5f14 90be 65fe 62be 19e4 3dbe

fc3.weight f4 [1, 128]
0.0044645225 -0.054230634 0.034638803 0.006507259 0.0074004615 -0.008231853 0.00333839 -0.012278692
0.004988081 -0.010436737 0.01982576 0.010050394 0.041261192 -0.008854244 -0.031121727 -0.002667967
0.09746238 -0.024603335 0.026377056 -0.008080302 0.0071251746 0.0007874305 0.033418056 0.01346079
-0.023480242 -0.003919366 0.0105747115 0.041504618 0.020097421 -0.02906011 0.0024920206 -0.008184466
0.00034501302 0.008705105 0.038156725 -0.01407107 -0.003791031 -0.020684538 0.023586774 0.002978793
-0.0065228147 -0.01634673 -0.0150521435 0.0026102536 -0.01386713 0.013090911 0.020086383 0.022198603
0.0009476133 -0.039154913 0.01440564 -0.00898202 0.014649781 0.0161608 0.008656607 -0.008157344
0.0071741464 0.008331379 0.0024012248 0.012000907 -0.017315874 0.0074991747 0.0107610095 -0.009825075
-0.009128991 -0.011847186 0.0156093575 0.0065856464 -0.04186269 -0.0069976537 -0.09259366 -0.019196436
0.019527618 0.0007660377 0.053050067 0.010614208 0.021211728 0.071727455 -0.008971915 0.00072986906
-0.011089107 0.0414102 0.0081252875 0.010387161 -0.009413575 -0.0056341738 0.009476124 0.016043413
0.02299702 -0.009823616 0.0056910873 -0.013019282 0.007415195 -0.008555165 -0.0177642 -0.028235275
0.007367478 0.0070332573 -0.07180013 -0.05360044 -0.012619824 0.012664967 0.022290636 -0.008152874
-0.037077628 -0.015724516 -0.005782251 0.01565272 0.038155813 0.011789069 0.012218576 -0.027989408
-0.028807271 -0.016449623 0.005221083 -0.017560273 0.030670302 -0.047900468 0.013003102 -0.016575966
-0.013153972 0.009622682 -0.023198422 0.0074849264 0.0010295234 0.01609945 -0.027962798 -0.039671898
00000000: 214b 923b f120 5ebd 6be1 0d3d d83a d53b
00000010: 927f f23b e5de 06bc e4c8 5a3b 912c 49bc
00000020: 0e73 a33b d9fe 2abc a269 a23c 68aa 243c
00000030: 7f01 293d 6411 11bc fef2 febc 0fd9 2ebb
00000040: 5b9a c73d ef8c c9bc b214 d83c 3e63 04bc
00000050: 4c7a e93b 916b 4e3a 5fe1 083d a58a 5c3c
00000060: a359 c0bc 066e 80bb 8e41 2d3c bf00 2a3d
00000070: 59a3 a43c 780f eebc 2b51 233b 2318 06bc
00000080: dde2 b439 db9f 0e3c 3a4a 1c3d 588a 66bc
00000090: f272 78bb 9f72 a9bc 0d39 c13c db37 433b
000000a0: 56bd d5bb 94e9 85bc 449d 76bc ca10 2b3b
000000b0: f532 63bc 437b 563c 338c a43c d8d9 b53c
000000c0: 4169 783a e760 20bd a205 6c3c 5329 13bc
000000d0: a305 703c a763 843c 71d4 0d3c 61a6 05bc
000000e0: 1a15 eb3b 5680 083c de5d 1d3b 749f 443c
000000f0: 05da 8dbc a3bb f53b f24e 303c 5af9 20bc
00000100: c391 15bc b31a 42bc 64be 7f3c 68cc d73b
00000110: 3678 2bbd 934c e5bb bfa1 bdbd d841 9dbc
00000120: 62f8 9f3c ebcf 483a 074b 593d 37e7 2d3c
00000130: 38c4 ad3c d8e5 923d f0fe 12bc af54 3f3a
00000140: 16af 35bc be9d 293d ed1f 053c e92e 2a3c
00000150: 653b 1abc e09e b8bb bf41 1b3c 7a6d 833c
00000160: 3f64 bc3c 3bf3 20bc 4d7c ba3b d44e 55bc
00000170: 2afb f23b f62a 0cbc 3a86 91bc aa4d e7bc
00000180: e36a f13b 3d77 e63b f20b 93bd 238c 5bbd
00000190: 61c3 4ebc b980 4f3c da9a b63c a293 05bc
000001a0: b6de 17bd b3d0 80bc 0979 bdbb 223a 803c
000001b0: 4549 1c3d f026 413c 6c30 483c 0b4a e5bc
000001c0: 3afd ebbc 5cc1 86bc 9e15 ab3b 90da 8fbc
000001d0: 4940 fb3c 4833 44bd f60a 553c 52ca 87bc
000001e0: c283 57bc 74a8 1d3c 9e0a bebc 1d44 f53b
000001f0: 13f1 863a fee2 833c 3d12 e5bc 007f 22bd
